exps/baseline_amass/log/snapshot/model-iter-28750-best.pth (torch, 205188 bytes, 57 tensors)

mlp_mini.motion_mlp.mlps.0.fc0.fc.weight f4 [12, 12]
-0.020985786 -0.008363633 -0.014879299 -0.0118415635 -0.019431429 -0.026514748 0.00744516 0.053417247
-0.038560253 -0.03923195 0.09424349 0.009021993 0.0010778763 0.0016255348 0.003538687 -0.007522408
-0.0075976504 -0.008207568 -0.041921016 -0.022422846 0.07011985 0.067639135 -0.047683924 -0.07965434
0.025627574 -0.009095235 -0.032070976 -0.012100169 0.0030043283 0.009350176 0.03441553 0.063856415
0.0005566505 -0.09881252 -0.03810581 0.0017351592 -0.028674606 -0.03363223 -0.0027003575 0.0010781734
0.013355053 0.02689056 -0.0033813103 -0.04108443 0.0484704 0.07113676 -0.08351304 0.030634437
0.056209475 0.004712254 -0.0066732485 -0.0132566895 -0.00038963582 0.011840966 -0.01010931 -0.041590746
0.056261357 0.06730099 -0.07832687 -0.05056783 0.0019660892 -0.0024681047 -0.012911064 -0.012469418
-0.00013108281 0.013634066 0.019331072 0.022933261 0.046083253 0.020175433 -0.14202622 -0.019047232
0.042272486 0.01488311 0.004312281 -0.013381952 -0.03010092 -0.0382073 -0.023359094 0.029138623
0.06950987 0.015370765 -0.097723894 -0.011008629 -0.0041351425 0.0021519768 0.0042311754 -0.0024176114
-0.0009009675 -0.0012430896 -0.027788475 -0.02079537 0.08504332 0.054990612 -0.091245875 -0.008130731
0.052542917 0.021041851 0.025593944 0.021392144 4.0061066e-05 -0.05934896 -0.103552915 -0.028129987
0.059677448 0.04114431 -0.034364115 -0.037850626 0.009355284 -0.011709817 -0.004794341 0.0012173433
0.0015005324 0.008222719 0.028006319 -0.008258142 -0.07365563 -0.033823323 0.0705643 0.0016642162
-0.010048301 0.010594023 -0.00033048447 0.0050509353 0.006900411 0.010888479 0.029980434 0.009019522
-0.08028651 -0.05522188 0.07246932 -0.02656125 0.0090369815 0.067462996 -0.0051188413 -0.012481215
0.0008064608 0.007969193 0.03555456 0.075679466 0.06717535 0.018541088 -0.015256448 0.031013781
00000000: 62ea abbc 9f07 09bc 4ec8 73bc 1e03 42bc
00000010: a92e 9fbc 7535 d9bc 87f6 f33b 0bcc 5a3d
00000020: 5bf1 1dbd aeb1 20bd bb02 c13d fbd0 133c
00000030: 8747 8d3a e60f d53a 51e9 673b 887e f6bb
00000040: b6f5 f8bb 0979 06bc 5fb5 2bbd 1eb0 b7bc
00000050: ff9a 8f3d 6386 8a3d 3850 43bd d121 a3bd
00000060: ebf0 d13c 2e04 15bc db5c 03bd ca3f 46bc
00000070: 44e4 443b 7b31 193c 4cf7 0c3d 27c7 823d
00000080: 2fec 113a 385e cabd d614 1cbd 486e e33a
00000090: 02e7 eabc f3c1 09bd 7bf8 30bb 7f51 8d3a
000000a0: 27cf 5a3c 9749 dc3c f998 5dbb 2648 28bd
000000b0: e688 463d 26b0 913d e208 abbd 12f5 fa3c
000000c0: e83b 663d 4069 9a3b 44ab dabb 9632 59bc
000000d0: 0948 ccb9 9c00 423c 85a1 25bc 0f5b 2abd
000000e0: 4f72 663d 1ad5 893d d769 a0bd 3720 4fbd
000000f0: 81d9 003b edbf 21bb ed88 53bc 884c 4cbc
00000100: 4673 09b9 6b61 5f3c 325c 9e3c 89de bb3c
00000110: cbc1 3c3d f346 a53c 526f 11be f108 9cbc
00000120: ea25 2d3d 4ad8 733c 094e 8d3b fa3f 5bbc
00000130: 3496 f6bc 427f 1cbd 925b bfbc 1fb4 ee3c
00000140: 315b 8e3d a9d5 7b3c 7723 c8bd 895d 34bc
00000150: 1780 87bb 2e08 0d3b aca5 8a3b ca70 1ebb
00000160: e82e 6cba 2aef a2ba a8a4 e3bc 0d5b aabc
00000170: 312b ae3d d63d 613d 1edf babd c236 05bc
00000180: 3e37 573d f65f ac3c 64aa d13c 943e af3c
00000190: 3e07 2838 e517 73bd 8d13 d4bd dc70 e6bc
000001a0: 5770 743d f086 283d 63c1 0cbd 4209 1bbd
000001b0: e846 193c 88da 3fbc d919 9dbb 438f 9f3a
000001c0: 83ad c43a 95b8 063c 826d e53c 284d 07bc
000001d0: c3d8 96bd 538a 0abd 0484 903d d421 da3a
000001e0: a1a1 24bc 8e92 2d3c e044 adb9 5182 a53b
000001f0: d81c e23b 9765 323c 8799 f53c 9ec6 133c
00000200: 416d a4bd 5730 62bd cb6a 943d fb96 d9bc
00000210: d90f 143c 0a2a 8a3d f4bb a7bb 037e 4cbc
00000220: ab68 533a 3891 023c a9a1 113d d6fd 9a3d
00000230: 3b93 893d 7be3 973c 2ef6 79bc 9d10 fe3c

mlp_mini.motion_mlp.mlps.0.fc0.fc.bias f4 [12]
-0.00046018534 -0.000121845 -0.00016423364 -0.0003996371 -3.8466304e-05 1.1431016e-05 7.139346e-05 8.761602e-06
-0.00013474013 -0.0007754667 8.509548e-05 1.8609677e-05
00000000: 0845 f1b9 0987 ffb8 2236 2cb9 6286 d1b9
00000010: e156 21b8 d7c7 3f37 12b9 9538 cbfe 1237
00000020: 0749 0db9 b048 4bba 4a75 b238 fa1b 9c37

mlp_mini.motion_mlp.mlps.0.norm0.alpha f4 [1, 81, 1]
0.13985445 0.16925617 0.20136 0.025994688 0.15863024 0.21620408 -0.021907553 0.27312636
0.07908537 0.17111117 0.21789983 0.032176815 0.018287502 0.20954867 0.21045922 0.20995955
0.228746 0.3009265 0.023480818 0.18649249 0.21240096 0.21629676 0.2741767 0.22960462
0.02555368 0.18573175 0.11579956 0.1813835 0.14628577 0.2204835 0.1861357 -0.009560594
0.09559783 0.17375454 0.20629542 0.16370767 0.21921185 0.23636459 0.01714006 0.1936733
0.13316102 0.15402025 0.20882417 0.09068247 0.13153715 0.21073385 0.20257165 0.20502928
-0.074725024 0.14890927 -0.024509408 0.23095952 0.19843033 0.25987396 0.22321722 0.22079146
0.228269 0.20925638 0.16043633 0.19681521 0.04161576 0.18685469 0.22194913 0.20965353
0.012632535 0.0223149 0.09111793 0.23751315 0.215115 0.1893734 0.22446933 0.17762299
0.0020622562 0.20377828 0.21719289 0.27122122 0.068820536 0.009283394 0.20993508 0.092776775
0.20757471
00000000: 0136 0f3e 7d51 2d3e 5131 4e3e d0f2 d43c
00000010: f76f 223e 9a64 5d3e 7877 b3bc 38d7 8b3e
00000020: 83f7 a13d c437 2f3e 2221 5f3e d6cb 033d
00000030: accf 953c ed93 563e 9f82 573e a3ff 563e
00000040: 643c 6a3e 0a13 9a3e d85a c03c e3f7 3e3e
00000050: a37f 593e e67c 5d3e e360 8c3e 791d 6b3e
00000060: f355 d13c 7730 3e3e 5228 ed3d 99bc 393e
00000070: f0cb 153e 6dc6 613e 5b9a 3e3e 0aa4 1cbc
00000080: ccc8 c33d b6ec 313e 1b3f 533e fca2 273e
00000090: 1279 603e 8f09 723e 5069 8c3c 4b52 463e
000000a0: 5d5b 083e 7cb7 1d3e 01d6 553e bbb7 b93d
000000b0: adb1 063e 9dca 573e f16e 4f3e 32f3 513e
000000c0: 6f09 99bd ac7b 183e f4c7 c8bc a780 6c3e
000000d0: 5231 4b3e 330e 853e 0e93 643e 2817 623e
000000e0: 59bf 693e 4e47 563e 6c49 243e ed89 493e
000000f0: 4a75 2a3d d656 3f3e a246 633e 6aaf 563e
00000100: b1f8 4e3c bdcd b63c 0a9c ba3d a636 733e
00000110: 1b47 5c3e 1aeb 413e 4adb 653e cde2 353e
00000120: eb26 073b 41ab 503e d067 5e3e 82dd 8a3e
00000130: c8f1 8c3d 6019 183c 39f9 563e c001 be3d
00000140: 778e 543e

mlp_mini.motion_mlp.mlps.0.norm0.beta f4 [1, 81, 1]
0.002391193 -0.024313226 0.0023504482 -0.01813137 -0.002179355 -0.00577695 -0.0038569875 0.05828135
0.008891346 0.0008732232 0.010909452 -0.003750447 -0.0022678697 0.007559292 0.009819259 -0.014576401
0.010452394 0.058907393 -0.0073393374 -8.3008505e-05 0.07845105 0.0011655797 -0.07529436 0.01661544
-0.0016369572 0.0037884628 -0.0002953898 0.0069057085 0.0035748729 0.0059212046 0.013487349 -0.03176813
0.00789764 -0.0008196309 0.0053344113 -0.011178407 -0.0058896216 0.0071312934 -0.004535915 0.011650131
-0.0011547065 0.009572048 0.012423233 -0.002125189 -0.0075273197 0.009322424 0.009664623 0.0032901096
0.013609049 0.017320666 -0.0021625662 0.0007999973 0.015046938 0.0044547133 0.0044118343 0.009506837
0.009148607 0.016104398 -0.0022343197 0.008132576 -0.0016577678 -0.001614497 -0.046594534 0.0014163859
-0.008973326 -0.002485672 0.004725193 0.0075890184 -0.038460113 0.010104103 0.0062033883 -0.01901632
-0.0056851204 -0.029438248 0.0060589695 0.014317515 -0.022545774 0.0022846847 0.0075892652 -0.0704133
-0.013038374
00000000: 90b5 1c3b 882c c7bc fa09 1a3b 3d88 94bc
00000010: 82d3 0ebb 924c bdbb 83c5 7cbb 6db8 6e3d
00000020: 02ad 113c 04e9 643a 8fbd 323c 0fca 75bb
00000030: 8aa0 14bb f0b3 f73b f5e0 203c dbd1 6ebc
00000040: 8540 2b3c e148 713d d37e f0bb da14 aeb8
00000050: f2aa a03d 5dc6 983a ee33 9abd 1a1d 883c
00000060: 2b8f d6ba dc47 783b 8cde 9ab9 4849 e23b
00000070: 6a48 6a3b aa06 c23b 0bfa 5c3c 4c1f 02bd
00000080: 1a65 013c 80dc 56ba 49cc ae3b a325 37bc
00000090: bafd c0bb a0ad e93b 03a2 94bb 31e0 3e3c
000000a0: 8559 97ba 14d4 1c3c d18a 4b3c c146 0bbb
000000b0: bca7 f6bb 15bd 183c 5e58 1e3c e19e 573b
000000c0: 7df8 5e3c 12e4 8d3c d7b9 0dbb e9b6 513a
000000d0: 6f87 763c d8f8 913b 2691 903b 91c2 1b3c
000000e0: 0ae4 153c 5fed 833c aa6d 12bb 7f3e 053c
000000f0: 7549 d9ba 889d d3ba e9d9 3ebd 06a6 b93a
00000100: db04 13bc a8e6 22bb cbd5 9a3b 4dad f83b
00000110: 5a88 1dbd ae8b 253c cb45 cb3b 1dc8 9bbc
00000120: 3f4a babb 7b28 f1bc 528a c63b 0394 6a3c
00000130: eab1 b8bc a6ba 153b 5faf f83b d934 90bd
00000140: e79e 55bc

mlp_mini.motion_mlp.mlps.1.fc0.fc.weight f4 [12, 12]
-0.036422446 -0.033254247 0.048209418 0.07653222 -0.0329291 0.05108453 0.0144845955 0.04380806
-0.03755715 -0.080471516 -0.057947874 -0.016349649 -0.027498053 0.050504997 -0.039548595 0.028277764
0.056752693 -0.0044312067 0.013684206 0.044787504 -0.051702436 0.030134665 -0.04107235 0.012822361
-0.044429425 0.011722075 0.041718103 -0.096419565 0.035581086 0.0730879 -0.0029405958 -0.010057727
0.035817664 -0.0717992 0.051964127 0.06757438 -0.053531684 0.070870444 0.012619796 0.010160219
0.0397806 0.08259668 0.008970902 0.037792277 -0.0439525 -0.039354883 0.024409773 -0.00045527058
0.0026228505 0.041876756 -0.04547607 -0.014215813 0.022081576 -0.039297506 0.012982653 0.047974743
0.12382604 -0.040630218 -0.026756652 0.006112689 -0.03501574 0.013712563 -0.018817231 0.04638615
0.03472268 -0.0037789799 -0.007224661 0.085223824 0.0015486658 -0.07043414 -0.08320226 0.03423255
0.014745588 0.034006607 -0.021667281 0.035733532 0.031403113 0.011066067 -0.012917843 0.040288348
0.010947546 -0.079092346 -0.074278675 0.018631712 0.0019748418 0.054514628 0.011892905 0.03449476
-0.018813211 0.07636955 0.02657806 0.03739421 0.0136727365 -0.007928134 -0.029347602 -0.0508906
0.03197375 0.049687244 -0.09378351 -0.00074279634 -0.01001218 -0.021621497 -0.06273125 -0.0071940105
0.00011950146 0.06857899 0.024136025 0.011233753 0.010951617 -0.027389321 0.012098795 -0.018350739
-0.011308442 0.008570764 -0.0071750656 -0.07137191 -0.059957057 0.09545212 0.09428946 0.024100048
-0.062648565 0.014350261 0.015557491 0.0389517 0.028579496 0.016844273 0.022760203 0.0062863645
-0.023316417 -0.03058935 -0.05747007 -0.04186956 -0.04002961 0.011600458 0.004762239 0.032620728
0.07128771 0.0020089103 -0.012109868 0.040734384 0.047995165 -0.021654394 -0.053274825 -0.04210136
00000000: b42f 15bd 9b35 08bd 3d77 453d edbc 9c3d
00000010: aae0 06bd 033e 513d cc50 6d3c 1570 333d
00000020: 87d5 19bd 40ce a4bd c05a 6dbd b3ef 85bc
00000030: 9943 e1bc 54de 4e3d b5fd 21bd c5a6 e73c
00000040: 8375 683d a833 91bb b833 603c 1a73 373d
00000050: efc5 53bd f9dc f63c 7b3b 28bd e114 523c
00000060: a1fb 35bd f20d 403c 9ae0 2a3d 9f77 c5bd
00000070: 79bd 113d 1caf 953d 03b7 40bb 2ac9 24bc
00000080: 8bb5 123d 750b 93bd 56d8 543d 7064 8a3d
00000090: 0a44 5bbd 8624 913d 43c3 4e3c 0c77 263c
000000a0: fcf0 223d 7328 a93d b1fa 123c 13cc 1a3d
000000b0: 8907 34bd 9632 21bd 01f7 c73c 62b1 eeb9
000000c0: 21e4 2b3b f686 2b3d 1e45 3abd 71e9 68bc
000000d0: 6ce4 b43c 6cf6 20bd 32b5 543c 2a81 443d
000000e0: 8298 fd3d df6b 26bd c430 dbbc f44c c83b
000000f0: aa6c 0fbd a8aa 603c 9826 9abc 67ff 3d3d
00000100: 5e39 0e3d c3a8 77bb d9bc ecbb d489 ae3d
00000110: 9afc ca3a c63f 90bd f265 aabd 6e37 0c3d
00000120: 7b97 713c 834a 0b3d 957f b1bc 535d 123d
00000130: 8da0 003d 734e 353c 5ca5 53bc 6505 253d
00000140: 565d 333c 2bfb a1bd 6b1f 98bd 88a1 983c
00000150: 596c 013b bb4a 5f3d 76da 423c 614a 0d3d
00000160: 2a1e 9abc a367 9c3d 3bba d93c ac2a 193d
00000170: 9d03 603c 01e5 01bc 626a f0bc a972 50bd
00000180: e8f6 023d da84 4b3d 9211 c0bd 38b8 42ba
00000190: 200a 24bc 911f b1bc 3e79 80bd bcbb ebbb
000001a0: dc9c fa38 2473 8c3d eab8 c53c c60d 383c
000001b0: 696e 333c 925f e0bc 063a 463c 4a54 96bc
000001c0: 0b47 39bc 646c 0c3c d01c ebbb 702b 92bd
000001d0: 8895 75bd 677c c33d d51a c13d 776d c53c
000001e0: e44d 80bd 5b1d 6b3c d9e4 7e3c d18b 1f3d
000001f0: 8c1f ea3c 00fd 893c 9b73 ba3c d9fd cd3b
00000200: 1202 bfbc 8496 fabc bc65 6bbd 6a7f 2bbd
00000210: 17f6 23bd d90f 3e3c 8e0c 9c3b 509d 053d
00000220: 4aff 913d eca7 033b 7868 46bc 19d9 263d
00000230: 9496 443d 8e64 b1bc b436 5abd 7a72 2cbd

mlp_mini.motion_mlp.mlps.1.fc0.fc.bias f4 [12]
-1.3261993e-05 -5.312345e-06 3.6741745e-05 1.2428257e-05 -5.652664e-06 -3.753602e-05 -1.401888e-05 2.4411851e-05
4.2601046e-06 5.4426295e-05 -8.824375e-06 4.6398585e-05
00000000: d47f 5eb7 b240 b2b6 261b 1a38 f582 5037
00000010: 04ac bdb6 ff6f 1db8 a232 6bb7 0dc8 cc37
00000020: 05f2 8e36 ca47 6438 670c 14b7 1a9c 4238

mlp_mini.motion_mlp.mlps.1.norm0.alpha f4 [1, 81, 1]
0.11540941 0.24743325 0.21730411 0.029001154 0.11395742 0.17339024 0.032155555 0.10944239
0.037083216 0.19252585 0.2596205 -0.003888159 -0.0013337034 0.19171566 0.21967769 0.19089028
0.17693119 0.12918378 0.006922905 0.23561235 0.45359966 0.2243014 0.42763057 0.28522658
0.00016664591 0.2317222 0.101687014 0.22211564 0.08930108 0.20062354 0.14535175 -0.023625582
0.08603336 0.24657893 0.21952432 0.21078567 0.17530595 0.20063978 -0.0007985912 0.20584229
0.12594618 0.15651459 0.17203343 0.07708041 0.14158908 0.19310531 0.19465293 0.198357
0.088934794 0.10983025 -0.038001895 0.21777983 0.13830274 0.18294945 0.20968841 0.17412518
0.19898139 0.21747024 0.15554737 0.2126006 -0.0066003995 0.07890121 0.37079155 0.15118922
0.007361126 -0.0006964167 0.10446168 0.24105723 0.41542086 0.16842057 0.17778507 0.24537069
0.03673093 0.10892221 0.20178735 0.53206074 0.058946546 0.052166793 0.18291642 -0.006014846
0.21329007
00000000: c55b ec3d 245f 7d3e f884 5e3e d493 ed3c
00000010: 8262 e93d 368d 313e 8bb5 033d 5523 e03d
00000020: 92e4 173d 7f25 453e faec 843e 7cd0 7ebb
00000030: a9cf aeba 1c51 443e 30f3 603e be78 433e
00000040: 732d 353e c148 043e 89d9 e23b 5d44 713e
00000050: 373e e83e 44af 653e 65f2 da3e 3809 923e
00000060: acbd 2e39 9648 6d3e 4841 d03d 4872 633e
00000070: 7ce3 b63d 4270 4d3e 17d7 143e 708a c1bc
00000080: 4232 b03d 307f 7c3e fcca 603e 33d8 573e
00000090: 6783 333e 8474 4d3e 8c58 51ba 52c8 523e
000000a0: 09f8 003e 5c45 203e 8829 303e 56dc 9d3d
000000b0: bafc 103e 66bd 453e 1953 473e 191e 4b3e
000000c0: 7223 b63d afee e03d e0a7 1bbd ad01 5f3e
000000d0: 3c9f 0d3e 1a57 3b3e 8fb8 563e df4d 323e
000000e0: c7c1 4b3e 85b0 5e3e cf47 1f3e f9b3 593e
000000f0: 2a48 d8bb f596 a13d 64d8 bd3e 59d1 1a3e
00000100: 9a35 f13b bc8f 36ba 01f0 d53d b5d7 763e
00000110: 0bb2 d43e 7176 2c3e 4a0d 363e 7442 7b3e
00000120: 2c73 163d 9c12 df3d 58a1 4e3e 2235 083f
00000130: ef71 713d d9ac 553d 714e 3b3e 2f18 c5bb
00000140: b668 5a3e

mlp_mini.motion_mlp.mlps.1.norm0.beta f4 [1, 81, 1]
-0.002235248 -0.015350759 0.0013658534 0.040973555 -0.0038425496 -0.0073383413 0.0042906106 -0.0057588858
-0.006071339 0.003801984 -0.0075828996 -0.005087296 -0.0028937266 0.008921948 0.0030718565 0.0016356409
-0.004406478 -0.03215715 0.0036003285 0.0015194528 0.028439716 0.004159772 -0.08050483 0.015129324
0.0009008598 0.0017336698 -0.006158597 0.008394479 -0.00622842 -0.0027324317 0.0058424138 0.013217471
0.008659715 0.014968668 0.0044757086 -0.0059227147 0.010121792 0.0025614656 0.0023343817 -0.003114163
0.00019557908 0.006756241 -0.0015889935 0.0023637835 0.0036628623 0.0035184852 0.007889942 0.005811479
-0.003957275 -0.0058642467 -0.0007107742 0.020841027 -0.0034981905 -0.003754325 -0.003270323 -0.0050011715
0.0132476855 0.002216604 -0.0014674519 -0.0037694508 0.005468768 0.0009090048 -0.016459687 -0.0021311634
0.0029758005 -0.0023414462 -0.004630485 0.014241241 -0.008427665 0.005349836 -0.000969816 0.011125431
0.0004310352 0.0016212784 0.0028531817 0.014084956 0.0031568145 0.0124998465 0.0011576625 -0.0138248475
-0.005123976
00000000: 3d7d 12bb c081 7bbc 6f06 b33a e3d3 273d
00000010: 49d3 7bbb 7876 f0bb 4098 8c3b 09b5 bcbb
00000020: 15f2 c6bb b52a 793b f979 f8bb 55b3 a6bb
00000030: ada4 3dbb 5d2d 123c 3351 493b 0063 d63a
00000040: 3764 90bb 37b7 03bd 7df3 6b3b 6028 c73a
00000050: 68fa e83c b24e 883b b7df a4bd fce0 773c
00000060: ae27 6c3a 4e3c e33a 0ece c9bb ff88 093c
00000070: c617 ccbb 9912 33bb b871 bf3b 178e 583c
00000080: 7ae1 0d3c 253f 753c f7a8 923b 5513 c2bb
00000090: dfd5 253c 43de 273b 6dfc 183b fc16 4cbb
000000a0: 5c14 4d39 7563 dd3b c645 d0ba b5e9 1a3b
000000b0: a20c 703b 6396 663b d144 013c 386e be3b
000000c0: 07ac 81bb de28 c0bb 4053 3aba cdba aa3c
000000d0: e641 65bb 1f0b 76bb ea52 56bb dee0 a3bb
000000e0: d20c 593c 7244 113b 8457 c0ba e408 77bb
000000f0: 5a33 b33b 484a 6e3a 77d6 86bc fdaa 0bbb
00000100: a605 433b f372 19bb 53bb 97bb 1854 693c
00000110: 3014 0abc ad4d af3b 403b 7eba 7147 363c
00000120: 91fc e139 1381 d43a 72fc 3a3b 96c4 663c
00000130: 8fe2 4e3b 28cc 4c3c b5bc 973a 9d81 62bc
00000140: 07e7 a7bb

mlp_mini.motion_mlp.mlps.2.fc0.fc.weight f4 [12, 12]
-0.069657646 -0.006575386 -0.021308325 0.016666744 -0.014918761 0.058730178 0.031928554 0.0046255095
0.04231038 0.038714178 -0.012946009 0.030859245 -0.0046509774 -0.034194104 0.016886465 -0.027150774
-0.00783207 0.02887609 -0.0013212856 0.11113991 -0.0062948824 -0.07229951 0.00226379 -0.032152038
-0.015264829 -0.015702281 -0.073614545 0.012753173 0.04473556 -0.050425664 -0.07632527 -0.07273859
-0.01486523 -0.020193104 0.0019779466 -0.028903954 0.030773215 -0.04350166 -0.069491714 -0.05682138
-0.044886988 -0.0031875956 0.051132068 0.00046579618 0.014820286 0.010967464 -0.0030778432 -0.07677289
-0.040051732 0.0069712857 0.020149447 0.060502753 -0.038523145 -0.08592809 -0.04995865 0.050457213
-0.001208492 0.070838444 0.03323301 -0.017333029 0.005262163 -0.054063667 0.0022145323 0.0073253564
-0.026464041 0.0053150943 0.009211003 0.04570184 -0.16569705 -0.03656568 0.004110336 -0.016662162
0.043043807 -0.035176717 -0.0068469206 -0.050693247 0.02054475 0.039927077 -0.027240727 -0.078795485
0.020842591 -0.08195567 -0.056788523 0.019883487 0.0043031005 0.010016254 -0.042161733 -0.013260852
0.07302602 -0.009585843 -0.032993093 -0.05914372 0.030285612 -0.022506941 -0.03179213 0.060640436
0.013928755 -0.036470085 0.066721685 0.05265172 -0.04433674 0.061901804 0.039780654 0.05443459
-0.018025372 -0.01278539 -0.026647247 0.02530981 0.013036769 -0.03686117 0.008423031 0.010477329
-0.016036361 -0.06579386 -0.01659425 -0.065852344 -0.038739737 0.03867634 -0.04194799 -0.046690684
-0.019899322 -0.024285631 -0.017830567 -0.036376543 0.07265601 -0.060349967 -0.052474502 0.0043392624
0.07379671 0.05416449 -0.010600558 -0.06396978 -0.049735192 -0.02523624 -0.020213146 0.016933959
0.00902057 0.058226638 0.039476268 0.015394759 0.015042706 0.016535752 -0.060424086 0.02151818
00000000: aba8 8ebd 5676 d7bb cc8e aebc b288 883c
00000010: d26d 74bc 0e8f 703d 84c7 023d 9691 973b
00000020: a64d 2d3d c292 1e3d 7f1b 54bc 87cc fc3c
00000030: 3a67 98bb 1e0f 0cbd 7c55 8a3c 4d6b debc
00000040: 1552 00bc 8d8d ec3c fd2e adba 529d e33d
00000050: 4d45 cebb c411 94bd 185c 143b dbb1 03bd
00000060: 5519 7abc 12a2 80bc 39c3 96bd aff2 503c
00000070: a23c 373d 248b 4ebd 6c50 9cbd f8f7 94bd
00000080: 4b8d 73bc 026c a5bc 70a0 013b fcc7 ecbc
00000090: 1c18 fc3c cc2e 32bd ac51 8ebd 89bd 68bd
000000a0: 6bdb 37bd fbe6 50bb dc6f 513d 1b36 f439
000000b0: c9d0 723c e1b0 333c a4b5 49bb 1b3b 9dbd
000000c0: 490d 24bd 626f e43b 7410 a53c bcd1 773d
000000d0: 72ca 1dbd 11fb afbd 71a1 4cbd 39ac 4e3d
000000e0: 4366 9eba bf13 913d 561f 083d fffd 8dbc
000000f0: 396e ac3b dd71 5dbd b021 113b 8b09 f03b
00000100: 1ecb d8bc 3e2a ae3b bfe9 163c da31 3b3d
00000110: 7dac 29be e5c5 15bd ffaf 863b 167f 88bc
00000120: b44e 303d 7615 10bd 225c e0bb b9a3 4fbd
00000130: 774d a83c 938a 233d f227 dfbc 875f a1bd
00000140: 15be aa3c 60d8 a7bd 159b 68bd b2e2 a23c
00000150: 0601 8d3b 371b 243c c8b1 2cbd 0b44 59bc
00000160: aa8e 953d f10d 1dbc c423 07bd af40 72bd
00000170: 8819 f83c 7a60 b8bc 7738 02bd 1b62 783d
00000180: 6f35 643c a861 15bd 61a5 883d 54a9 573d
00000190: 719a 35bd bf8c 7d3d 0af1 223d cef6 5e3d
000001a0: f2a9 93bc d079 51bc 544b dabc 8556 cf3c
000001b0: 2c98 553c bdfb 16bd c100 0a3c 1aa9 2b3c
000001c0: b05e 83bc eebe 86bd aaf0 87bc 98dd 86bd
000001d0: 8fad 1ebd 156b 1e3d a8d1 2bbd bb3e 3fbd
000001e0: e703 a3bc a9f2 c6bc 6911 92bc 92ff 14bd
000001f0: adcc 943d 8731 77bd 81ef 56bd 5f30 8e3b
00000200: bb22 973d 96db 5d3d f6ad 2dbc 9702 83bd
00000210: 21b7 4bbd 3bbc cebc 0a96 a5bc 16b9 8a3c
00000220: 03cb 133c 0e7f 6e3d deb1 213d 4d3a 7c3c
00000230: af75 763c fc75 873c 3f7f 77bd e546 b03c

mlp_mini.motion_mlp.mlps.2.fc0.fc.bias f4 [12]
3.7759771e-06 1.579197e-05 -6.695435e-08 -5.7918583e-06 3.3291678e-06 1.2572603e-05 5.1543193e-06 -1.5106237e-06
-3.052317e-06 -2.3644145e-05 1.4274813e-05 1.3981618e-05
00000000: cb66 7d36 ff78 8437 8bc8 8fb3 af57 c2b6
00000010: ab6a 5f36 ebee 5237 44f3 ac36 a3c0 cab5
00000020: 68d6 4cb6 6a57 c6b7 db7d 6f37 9892 6a37

mlp_mini.motion_mlp.mlps.2.norm0.alpha f4 [1, 81, 1]
0.08606585 0.17896022 0.19327521 0.024272995 -0.026704473 0.11594702 -0.010557205 0.08561543
0.0406312 0.2967509 0.20055123 0.004965609 0.0011924151 0.10811426 0.14720622 0.14770676
0.18097888 0.17853343 0.0034681645 0.17559278 0.32197765 0.15305077 0.28112558 0.39860508
0.000337424 0.1481948 0.016962368 0.14923438 0.056962725 0.22575559 0.13212493 -0.03704066
0.016881417 0.11062538 0.17238918 0.16228288 0.1255691 0.17556378 -0.0039333794 0.15395649
0.079378165 0.07106159 0.23331365 0.026604688 0.14231022 0.117578946 0.15748088 0.1757738
0.02451874 0.05940809 0.004122658 0.17789376 0.2086757 0.3339171 0.14819099 0.2518115
0.1389969 0.1476283 0.10090828 0.16553146 -0.024032237 -0.049383882 0.44348335 0.2704105
-0.0033936484 0.0013245146 -0.011863176 0.18998358 0.33658117 0.12873298 0.34056422 0.19639845
-0.0030709847 0.055556323 0.17482226 0.35251006 -0.0334765 -0.0025400142 0.1399651 -0.031171117
0.19661269
00000000: 4b43 b03d 5941 373e f0e9 453e 29d8 c63c
00000010: 57c3 dabc a275 ed3d 21f8 2cbc 2457 af3d
00000020: e76c 263d bcef 973e 4d5d 4d3e 8cb6 a23b
00000030: d04a 9c3a 026b dd3d 3abd 163e 7140 173e
00000040: 8752 393e 78d1 363e 254a 633b 98ce 333e
00000050: 41da a43e 57b9 1c3e b1ef 8f3e f715 cc3e
00000060: 48e8 b039 61c0 173e aaf4 8a3c e6d0 183e
00000070: bf51 693d 792c 673e c24b 073e f2b7 17bd
00000080: e64a 8a3c 8f8f e23d ca86 303e 7c2d 263e
00000090: 3095 003e fec6 333e 94e3 80bb c5a6 1d3e
000000a0: 0591 a23d bd88 913d c6e9 6e3e 13f2 d93c
000000b0: c5b9 113e 3bcd f03d ab42 213e 0cfe 333e
000000c0: 86db c83c e655 733d 5d17 873b c829 363e
000000d0: 15af 553e 2ff7 aa3e 61bf 173e 70ed 803e
000000e0: 3455 0e3e e02b 173e 00a9 ce3d 1481 293e
000000f0: 41df c4bc c146 4abd 4010 e33e 3f73 8a3e
00000100: f967 5ebb 569b ad3a c45d 42bc 0e8b 423e
00000110: 5e54 ac3e 94d2 033e 6f5e ae3e ad1c 493e
00000120: 9342 49bb 078f 633d 9b04 333e 337c b43e
00000130: a81e 09bd 5e76 26bb 0353 0f3e 925a ffbc
00000140: d654 493e

mlp_mini.motion_mlp.mlps.2.norm0.beta f4 [1, 81, 1]
-0.0047339574 0.006941649 -0.008807003 -0.025776414 0.0024079487 0.02730471 -0.0037272512 -0.022437878
0.0015141191 -0.00079574354 -0.0027927284 0.005086496 0.003393814 -0.005381469 0.002497955 0.007888467
-0.009628973 -0.02133365 0.00721852 0.011111135 -0.020841293 -0.020016838 0.043998305 -0.0049024853
-0.002477011 -0.0062193717 0.013750907 -0.0035760773 0.01328316 -0.0015099632 -0.013190656 0.016055353
-0.0019176874 -0.018622803 0.010345953 0.0017041188 -0.004587964 0.0074625625 0.0010017859 0.0024185427
-0.0025172492 -0.015859835 -0.003759237 -0.0018981042 0.0020843716 -0.0020453187 -0.011417944 0.010300551
0.0037383924 -0.00092667976 0.004753201 -0.04719172 -0.005540856 0.00066421344 0.0025358263 -0.0007692754
-0.0061332067 -0.004814586 0.002304809 0.024073087 0.012360776 -0.004449822 0.014188713 -0.0032727742
0.0016864953 0.0034507676 0.013584347 -0.021679776 -0.01800751 -0.005994683 -0.018177094 -0.007963561
0.0015381479 0.013966977 -0.01727891 0.0007762803 -0.0065691946 -0.0028778536 -0.008822987 0.055847894
0.039629273
00000000: 501f 9bbb c676 e33b 3f4b 10bc 0f29 d3bc
00000010: adce 1d3b 21ae df3c e644 74bb a4cf b7bc
00000020: 6875 c63a 7299 50ba 3506 37bb 9fac a63b
00000030: c06a 5e3b 0957 b0bb bbb4 233b a13e 013c
00000040: d7c2 1dbc e8c3 aebc 5689 ec3b 7a0b 363c
00000050: 5cbb aabc 5afa a3bc 9137 343d 07a5 a0bb
00000060: 5955 22bb dfcb cbbb 7c4b 613c 9f5c 6abb
00000070: 9ca1 593c f5e9 c5ba 9f1d 58bc 8486 833c
00000080: e95a fbba d98e 98bc 1282 293c bd5c df3a
00000090: a256 96bb 8388 f43b 5b4e 833a 6a80 1e3b
000000a0: 6ff8 24bb 7cec 81bc 885d 76bb cfc9 f8ba
000000b0: f499 083b c10a 06bb 5412 3bbc a4c3 283c
000000c0: d1ff 743b 6dec 72ba bdc0 9b3b 1b4c 41bd
000000d0: 1290 b5bb 9c1e 2e3a 1b30 263b 33a9 49ba
000000e0: 11f9 c8bb adc3 9dbb 470c 173b ec34 c53c
000000f0: da84 4a3c d0cf 91bb c777 683c 0a7c 56bb
00000100: 640d dd3a 4626 623b e290 5e3c c999 b1bc
00000110: 7c84 93bc 0c6f c4bb 21e8 94bc 9979 02bc
00000120: ae9b c93a bfd5 643c 808c 8dbc 4a7f 4b3a
00000130: 6642 d7bb 5f9a 3cbb 4a8e 10bc c3c0 643d
00000140: 4e52 223d

mlp_mini.motion_mlp.mlps.3.fc0.fc.weight f4 [12, 12]
-0.022795703 -0.018606385 -0.03676585 0.03647067 0.015785867 0.014261996 0.029180998 0.015101543
0.0020151797 0.032633167 0.112291366 0.04394719 -0.05183668 -0.051717184 0.00040932337 -0.0026547818
0.06379281 -0.098127626 -0.05755491 0.018219797 -0.044070568 0.122094244 0.03711324 -0.08187773
-0.002543778 -0.006322385 0.11951922 0.014381689 -0.012572856 -0.015972527 -0.08146219 -0.012640645
0.013932899 0.07105223 0.0033278507 6.1175895e-05 0.007925316 -0.053207144 0.067360885 -0.007667914
0.03057054 0.0042989426 -0.04002114 -0.02277392 -0.036361217 0.047204163 0.036615018 -0.007919159
0.08163592 0.011442247 -0.057214778 -0.0034351537 0.0033973942 0.048917063 -0.12765744 -0.030005427
-0.021262186 0.07153024 0.03445591 -0.015622785 -0.006442458 -0.09567077 0.06768177 0.028640874
-0.030558616 0.010142986 -0.04000923 -0.024339681 0.011357643 0.026320525 0.00094126957 -0.03112627
0.0074878633 -0.022150448 -0.026070895 0.09659335 -0.0073980847 0.011233309 -0.08956906 -0.0470973
-0.03684338 0.031335924 0.008635147 -0.014052692 0.03158188 0.048874002 0.05584803 -0.09140543
-0.010760756 0.013195332 -0.0061801467 -0.049689963 -0.040489536 -0.0017839993 -0.061543982 -0.008961826
0.006358132 0.044879586 0.03739404 -0.007719848 0.0011459525 0.013227156 -0.056045856 -0.019249622
-0.037366875 0.050428413 0.051961865 -0.053324774 0.06042384 0.020742396 -0.00064248545 -0.05186705
-0.007930849 0.003733494 -0.019232094 0.02555648 -0.08505515 0.013534489 -0.042608228 -0.04459106
-0.054309513 -0.015038895 0.025593316 -0.12347288 -0.0053862133 -0.030292625 -0.09220661 -0.015956724
0.0116331475 0.018525496 0.0044761137 0.012681493 -0.06546947 0.050934557 -0.015916524 0.051613685
-0.008206612 -0.0014566736 0.025233911 -0.030143464 0.07775817 -0.007824464 -0.024313195 -0.021413941
00000000: 0ebe babc 6b6c 98bc ca97 16bd 4562 153d
00000010: 5d51 813c 26ab 693c fd0c ef3c 766c 773c
00000020: 1b11 043b 5baa 053d 04f9 e53d f801 343d
00000030: b352 54bd 66d5 53bd 749a d639 d9fb 2dbb
00000040: cea5 823d 23f7 c8bd b3be 6bbd af41 953c
00000050: 5783 34bd 8c0c fa3d 0e04 183d 83af a7bd
00000060: 83b5 26bb 022c cfbb 7ec6 f43d 2da1 6b3c
00000070: 61fe 4dbc d1d8 82bc a6d5 a6bd b51a 4fbc
00000080: d046 643c d583 913d 1218 5a3b 8f4b 8038
00000090: 2fd9 013c bcef 59bd 81f4 893d 2043 fbbb
000000a0: 126f fa3c 25de 8c3b 35ed 23bd 5f90 babc
000000b0: 80ef 14bd 2759 413d a1f9 153d 5cbf 01bc
000000c0: bc30 a73d 4378 3b3c 0b5a 6abd 5120 61bb
000000d0: d1a6 5e3b 425d 483d a2b8 02be f1cd f5bc
000000e0: 092e aebc 727e 923d a421 0d3d b6f6 7fbc
000000f0: 411b d3bb 09ef c3bd bd9c 8a3d 44a0 ea3c
00000100: 1056 fabc c42e 263c b8e0 23bd 0364 c7bc
00000110: 6815 3a3c 249e d73c 88bf 763a 85fc febc
00000120: c05c f53b db74 b5bc a192 d5bc bcd2 c53d
00000130: a26b f2bb ea0b 383c fc6f b7bd 19e9 40bd
00000140: 16e9 16bd 195a 003d 6e7a 0d3c 433d 66bc
00000150: 005c 013d 1b30 483d e7c0 643d c532 bbbd
00000160: e24d 30bc 3c31 583c d482 cabb b487 4bbd
00000170: 5bd8 25bd 15d5 e9ba 8b15 7cbd 9fd4 12bc
00000180: e157 d03b a8d3 373d 7e2a 193d c7f6 fcbb
00000190: c933 963a b7b6 583c 5790 65bd 62b1 9dbc
000001a0: 020e 19bd 068e 4e3d f7d5 543d 146b 5abd
000001b0: fd7e 773d f5eb a93c 786c 28ba 8b72 54bd
000001c0: 64f0 01bc a3ad 743b a08c 9dbc d35b d13c
000001d0: 6531 aebd c3bf 5d3c f785 2ebd 1ea5 36bd
000001e0: a773 5ebd b365 76bc 13a9 d13c 59df fcbd
000001f0: d57e b0bb 3d28 f8bc d2d6 bcbd adb7 82bc
00000200: f598 3e3c c8c2 973c 5dac 923b 09c6 4f3c
00000210: dc14 86bd c1a0 503d 5f63 82bc df68 533d
00000220: 0775 06bc dbed beba 59b7 ce3c 6def f6bc
00000230: ad3f 9f3d 2e32 00bc 772c c7bc 4a6c afbc

mlp_mini.motion_mlp.mlps.3.fc0.fc.bias f4 [12]
6.989067e-08 6.9261405e-06 -7.0505835e-06 -8.8123056e-07 1.1267526e-05 1.1503288e-05 -1.519935e-06 1.0700442e-06
8.232761e-06 1.239927e-05 3.4368304e-06 -6.3665716e-06
00000000: cd16 9633 1867 e836 0d94 ecb6 b48d 6cb5
00000010: a809 3d37 3ffe 4037 9200 ccb5 709e 8f35
00000020: 701f 0a37 7606 5037 4ca4 6636 6fa0 d5b6

mlp_mini.motion_mlp.mlps.3.norm0.alpha f4 [1, 81, 1]
0.07037861 0.054322395 0.045642648 0.08252614 0.030643582 0.052811146 0.048773482 0.054682646
0.03191917 0.17015521 0.03699827 0.0047945376 0.015558796 0.058873836 0.06250822 0.071782455
0.05149717 0.0633167 0.015452274 0.060736813 0.1520629 0.056546785 0.09400078 0.27407196
0.016948435 0.05798262 0.030248754 0.056531753 0.008218518 0.07194596 0.07012038 0.05418115
0.04768318 0.059713095 0.05801163 0.05113244 0.060915895 0.07276837 0.028702628 0.054740783
0.0488233 0.06499185 0.07147288 0.06818478 0.043539796 0.05883553 0.061122492 0.06621287
0.061450604 0.13066646 0.08033094 0.05714327 0.057671014 0.13883848 0.0674126 0.069028996
0.051358532 0.05867065 0.023698691 0.057845972 0.008077938 -0.049160052 0.3179761 0.07380098
0.0276309 0.018103678 0.036291063 0.06262595 0.17008622 0.060946297 0.10840987 0.035918873
0.06338037 0.10551503 0.059362248 0.16474128 0.051553432 0.038914908 0.060966592 0.03421665
0.11171773
00000000: a922 903d 2981 5e3d c9f3 3a3d 7703 a93d
00000010: 4008 fb3c 8050 583d b4c6 473d e9fa 5f3d
00000020: adbd 023d 2b3d 2e3e 7f8b 173d 7f1b 9d3b
00000030: 52ea 7e3c b125 713d 4f04 803d ae02 933d
00000040: b2ee 523d 30ac 813d 892b 7d3c 2ac7 783d
00000050: 60b6 1b3e 9a9d 673d 7b83 c03d 2953 8c3e
00000060: 72d7 8a3c 2f7f 6d3d 3ccc f73c d78d 673d
00000070: f7a6 063c 6758 933d 469b 8f3d 0eed 5d3d
00000080: 704f 433d b895 743d 9a9d 6d3d 4070 513d
00000090: f282 793d 9507 953d c621 eb3c df37 603d
000000a0: f1fa 473d 721a 853d 6060 923d 76a4 8b3d
000000b0: c956 323d 86fd 703d 945b 7a3d 9d9a 873d
000000c0: a1b3 7b3d 6ecd 053e 8c84 a43d 100f 6a3d
000000d0: 7138 6c3d ad2b 0e3e 9e0f 8a3d 135f 8d3d
000000e0: 535d 523d a350 703d c223 c23c e6ef 6c3d
000000f0: 5459 043c 0d5c 49bd c3cd a23e f824 973d
00000100: 325a e23c 2a4e 943c f0a5 143d 0942 803d
00000110: 152b 2e3e d3a2 793d fe05 de3d ab1f 133d
00000120: 91cd 813d 4418 d83d d425 733d f0b1 283e
00000130: b129 533d 3d65 1f3d 1bb8 793d c226 0c3d
00000140: 44cc e43d

mlp_mini.motion_mlp.mlps.3.norm0.beta f4 [1, 81, 1]
0.016208438 -0.0009525879 0.0109083075 -0.024988318 0.0052148607 -0.03252626 -0.002011874 -0.015347957
-0.0042302073 0.009175818 0.03582883 -0.003371098 -0.00019938777 0.018856231 0.005928117 0.008811407
-0.0010271331 0.0052839275 -0.002237947 0.007490352 -0.0058127176 0.030899849 0.022118328 -0.012704319
-0.00035899918 0.00075569184 0.004042232 -0.013205066 -0.012514861 0.006367568 0.009144785 0.0031047743
-0.012715044 -0.008132942 -0.0014590111 -0.016716294 -0.03919673 -0.011389973 0.0001887946 -0.02170012
-0.0063854665 -0.004533899 0.0072106286 0.008097329 0.0021904483 0.013640726 0.005195169 -0.026057733
-0.0018693976 -0.007837619 0.0046496503 0.035941172 -0.022146551 -0.004533536 -0.0048273024 -0.01459871
0.0029483647 -0.012376197 -0.012162296 -0.021113394 0.0005260043 -0.0005025564 -0.017897483 0.009439896
0.0022157338 -0.00039002055 0.007790145 -0.03485729 0.02763016 0.0032054412 -0.0044963537 0.010494244
0.006183703 0.012616496 0.02821648 0.004337404 -2.8800438e-05 -0.004938651 0.007834496 0.014597205
0.032196343
00000000: 8fc7 843c 18b7 79ba c2b8 323c 4db4 ccbc
00000010: 6ce1 aa3b 413a 05bd a5d9 03bb ff75 7bbc
00000020: 8d9d 8abb 2c56 163c 40c1 123d a4ed 5cbb
00000030: bf12 51b9 6278 9a3c a640 c23b b85d 103c
00000040: dea0 86ba cc24 ad3b 85aa 12bb a071 f53b
00000050: 9c78 bebb ae21 fd3c 7f31 b53c c725 50bc
00000060: 0e38 bcb9 9f19 463a b374 843b 105a 58bc
00000070: 220b 4dbc 08a7 d03b 02d4 153c 7879 4b3b
00000080: c352 50bc 0840 05bc 4a3c bfba 9cf0 88bc
00000090: c08c 20bd 029d 3abc 2af7 4539 73c4 b1bc
000000a0: 2d3d d1bb 1a91 94bb 2347 ec3b a9aa 043c
000000b0: a08d 0f3b 5a7d 5f3c 3c3c aa3b 0777 d5bc
000000c0: 9306 f5ba 5b69 00bc 185c 983b 0d37 133d
000000d0: af6c b5bc 0e8e 94bb 592e 9ebb 6e2f 6fbc
000000e0: 5a39 413b 88c5 4abc 5e44 47bc fff5 acbc
000000f0: 8de3 093a fdbd 03ba be9d 92bc cba9 1a3c
00000100: d835 113b ac7b ccb9 7944 ff3b 85c6 0ebd
00000110: a558 e23c 6112 523b 2656 93bb 0df0 2b3c
00000120: a9a0 ca3b 6bb5 4e3c 3f26 e73c c820 8e3b
00000130: 7898 f1b7 68d4 a1bb 425c 003c 1e29 6f3c
00000140: 50e0 033d

mlp_mini.motion_mlp.mlps.4.fc0.fc.weight f4 [12, 12]
0.027904969 0.005387012 -0.039604858 -0.027208481 0.0072519914 0.032694034 0.013653481 -0.039082006
-0.009666479 0.011317341 0.10962645 0.03172627 -0.008746998 -0.020068893 0.025150878 -0.020838326
0.04028475 0.04093215 -0.08544392 -0.029781265 0.034317933 0.076006986 -0.0016041985 -0.0017691234
0.03039512 0.014520136 -0.037598003 0.009946319 -0.050034888 0.013103965 0.05091362 0.025884148
0.0015529867 -0.074650414 -0.0027514207 0.032043166 0.0136028 -0.063938014 -0.048992977 -0.011630529
0.020807613 -0.023295177 0.06452961 0.040045105 0.00424038 0.024377855 -0.01645843 -0.031469848
0.078601666 -0.00024048719 -0.03591602 0.024188621 0.024633655 -0.02673858 0.03004349 0.09336252
-0.054031275 -0.053191233 0.018334724 -0.034704585 0.025214348 -0.007529318 0.009191371 -0.0036543955
-0.032471698 -0.008116077 0.019672701 0.034432903 -0.14047083 0.037524264 0.012752294 0.025570106
-0.0064925854 -0.014080071 0.014306238 -0.0046265093 -0.0023497315 0.017268537 -0.04846409 0.086886376
0.040971685 0.081579134 -0.01435219 0.014605486 0.0011872696 -0.011353737 0.02426821 0.06671261
-0.0017352159 -0.052284207 -3.3422366e-05 0.0299531 -0.011387358 0.037996385 -0.05101499 0.0070209615
-0.034346275 0.021497678 -0.049775664 -0.047239307 -0.0061889463 -0.04489593 0.043454494 -0.0011755977
-0.0010252561 -0.036088835 0.05161638 -0.013968247 -0.064796634 -0.010702237 -0.04432011 -0.07673442
-0.019734066 0.01577423 0.013255946 0.046624705 -0.029250413 0.0050714267 -0.040591255 -0.007774289
-0.038745873 -0.01744099 -0.09637424 -0.023084354 0.013921435 -0.038205497 -0.016848264 -0.045354262
-0.011998418 0.010786004 -0.010103056 0.04518587 0.041767795 -0.0058923676 0.0048855124 -0.028338674
-0.0045206724 0.006393769 -0.05798727 -0.020156706 0.00043771538 -0.019484632 0.022132816 0.0838239
00000000: f698 e43c 8885 b03b b438 22bd 52e4 debc
00000010: 1da2 ed3b 2eea 053d dab2 5f3c 7414 20bd
00000020: 2760 1ebc 5e6c 393c d583 e03d 68f3 013d
00000030: 924f 0fbc 8567 a4bc 3709 ce3c 23b5 aabc
00000040: 9f01 253d 78a8 273d 39fd aebd d7f7 f3bc
00000050: f690 0c3d 8da9 9b3d f843 d2ba eee1 e7ba
00000060: 30ff f83c dde5 6d3c 5d00 1abd e3f5 223c
00000070: 62f1 4cbd 03b2 563c cd8a 503d fe0a d43c
00000080: 968d cb3a 51e2 98bd 2e51 34bb b23f 033d
00000090: 47de 5e3c eff1 82bd dcac 48bd f98d 3ebc
000000a0: ba74 aa3c 87d5 bebc 1a28 843d 5606 243d
000000b0: e3f2 8a3b 11b4 c73c d4d3 86bc 87e6 00bd
000000c0: e9f9 a03d 4a2b 7cb9 ad1c 13bd 3727 c63c
000000d0: 85cc c93c de0a dbbc c41d f63c d934 bf3d
000000e0: e64f 5dbd 0ddf 59bd b432 963c 6526 0ebd
000000f0: 528e ce3c 7fb8 f6bb 6797 163c 957e 6fbb
00000100: 0b01 05bd 4bf9 04bc a528 a13c 8409 0d3d
00000110: 96d7 0fbe 0bb3 193d ffee 503c 6678 d13c
00000120: c1bf d4bb 19b0 66bc b664 6a3c f999 97bb
00000130: f4fd 19bb bf76 8d3c 4882 46bd 7cf1 b13d
00000140: edd1 273d f612 a73d 7325 6bbc d94b 6f3c
00000150: 289e 9b3a 0605 3abc 20ce c63c 9fa0 883d
00000160: 2f70 e3ba f727 56bd fe2e 0cb8 3460 f53c
00000170: 0b92 3abc 19a2 1b3d 18f5 50bd 1810 e63b
00000180: aeae 0cbd e61b b03c 91e1 4bbd 017e 41bd
00000190: a5cc cabb cbe4 37bd 57fd 313d 8316 9aba
000001a0: e361 86ba e3d1 13bd b36b 533d 13db 64bc
000001b0: 19b4 84bd 6f58 2fbc 0189 35bd f026 9dbd
000001c0: 56a9 a1bc f538 813c 782f 593c 8cf9 3e3d
000001d0: 909e efbc 362e a63b 0443 26bd 77bf febb
000001e0: feb3 1ebd 68e0 8ebc dc5f c5bd 661b bdbc
000001f0: bb16 643c 5e7d 1cbd 5f05 8abc 64c5 39bd
00000200: 0395 44bc c8b7 303c 4a87 25bc d214 393d
00000210: b514 2b3d c314 c1bb a616 a03b 8226 e8bc
00000220: 2622 94bb d282 d13b 0f84 6dbd ad1f a5bc
00000230: 2a7d e539 3c9e 9fbc e14f b53c ddab ab3d

mlp_mini.motion_mlp.mlps.4.fc0.fc.bias f4 [12]
1.351033e-05 1.1723391e-05 1.5796077e-06 5.0414715e-06 6.8116465e-06 2.6734006e-06 2.1283217e-06 9.7273825e-09
-9.96756e-07 -1.0073528e-05 7.712706e-07 -5.1865036e-06
00000000: 6daa 6237 95af 4437 e802 d435 e929 a936
00000010: 998f e436 ac68 3336 4ad4 0e36 7b1d 2732
00000020: 46c8 85b5 7901 29b7 5009 4f35 ba07 aeb6

mlp_mini.motion_mlp.mlps.4.norm0.alpha f4 [1, 81, 1]
0.026303802 0.08130518 0.11564551 0.027994735 0.012366589 0.07950273 0.0036727695 0.036111306
-0.017695064 0.045862835 0.09448416 -0.0048266496 -0.0005649692 0.05888081 0.075929046 0.075518444
0.069850765 0.061812855 -0.008724184 0.06892318 0.19669136 0.06495727 0.115336165 0.23121923
-0.0029094538 0.06439122 -0.014724331 0.06360231 0.08124049 0.105348796 0.040932663 -0.024997985
0.011201574 0.05596022 0.08475895 0.06832168 0.06478611 0.07106752 -0.00973043 0.06719207
0.037000984 0.013995571 0.09086626 0.05334372 -0.021773497 0.06024572 0.06778542 0.06623498
-0.023565497 0.001552686 0.006902395 0.07831074 0.07473202 0.14144343 0.07943716 0.0860344
0.06349805 0.07463323 0.08068478 0.067885116 0.0064479685 0.060117584 0.10113538 0.11405412
-0.0070744264 0.001181151 0.015293015 0.08830759 0.15189944 0.08614725 0.16892032 0.051196687
0.03490599 0.021784464 0.07942025 0.13900012 0.0039993594 -0.03177281 0.06351768 -0.0025225652
0.09200861
00000000: 127b d73c 5583 a63d 8ed7 ec3d 3755 e53c
00000010: 3c9d 4a3c 54d2 a23d d9b2 703b 73e9 133d
00000020: 3df5 90bc abda 3b3d e980 c13d df28 9ebb
00000030: 711a 14ba 012d 713d b080 9b3d 6aa9 9a3d
00000040: eb0d 8f3d 7a2f 7d3d e1ef 0ebc 9927 8d3d
00000050: 7669 493e 5108 853d 5e35 ec3d bcc4 6c3e
00000060: 89ac 3ebb 8bdf 833d 523e 71bc ee41 823d
00000070: 6a61 a63d 1cc1 d73d 02a9 273d 93c8 ccbc
00000080: ce86 373c 8b36 653d 1a96 ad3d 3dec 8b3d
00000090: 94ae 843d d98b 913d 626c 1fbc ff9b 893d
000000a0: 588e 173d ae4d 653c 1718 ba3d f27e 5a3d
000000b0: 555e b2bc 37c4 763d 15d3 8a3d 35a6 873d
000000c0: 6e0c c1bc 7f83 cb3a 7c2d e23b 6261 a03d
000000d0: 1a0d 993d 8cd6 103e f3af a23d ce32 b03d
000000e0: 440b 823d 4fd9 983d 103e a53d 5a07 8b3d
000000f0: 7b49 d33b db3d 763d 1120 cf3d 3595 e93d
00000100: 97d0 e7bb dad0 9a3a 8e8f 7a3c 9cda b43d
00000110: 878b 1b3e f86d b03d 73f9 2c3e 9eb3 513d
00000120: 95f9 0e3d 5575 b23c 16a7 a23d 0c56 0e3e
00000130: 0f0d 833b 3524 02bd 8f15 823d 9f51 25bb
00000140: 036f bc3d

mlp_mini.motion_mlp.mlps.4.norm0.beta f4 [1, 81, 1]
-6.09925e-05 -0.042644285 0.016602052 -0.009020051 0.012180147 -0.00029897352 -0.0016442793 0.0016370127
0.0011763326 0.011495798 0.006209031 -0.0050887386 -0.0013071614 0.0015773362 0.011569366 0.0029695767
0.015163514 0.020809092 0.0016383039 0.01956117 -0.053543262 -0.039618846 0.03928442 0.00559416
-0.0010010609 0.011176267 0.0033440113 0.032343395 0.005281018 0.0082986355 -0.016885696 0.0091088815
-0.021904279 0.016522387 0.04579567 0.013154098 0.014514481 0.030956902 0.0004203369 -0.0036283284
0.0055275625 -0.01933107 0.011602354 -0.0011970412 -0.0010637044 0.0069953157 -0.0077378396 0.024519177
-0.008539373 -0.012373876 0.01897605 -0.07033538 -0.001250295 0.0009920212 0.0020367394 0.00043087607
0.02239721 -0.0054715765 0.013989774 0.008282835 -0.0022295748 0.00716615 0.006459267 0.015700107
0.0024916448 -0.0013553365 -0.0050670113 -0.021416524 -0.036083322 0.0026000326 0.0072736954 -0.032545563
0.0007202408 -0.02218931 -0.025107417 0.0076750317 -0.005743109 0.008636746 -0.0107945185 0.015085676
-0.04665732
00000000: 33d2 7fb8 c6ab 2ebd 0701 883c d6c8 13bc
00000010: 3d8f 473c 8cbf 9cb9 dc84 d7ba 0891 d63a
00000020: 2c2f 9a3a df58 3c3c 2175 cb3b 6fbf a6bb
00000030: 0f55 abba 9fbe ce3a 708d 3d3c 3b9d 423b
00000040: 6370 783c d477 aa3c 5bbc d63a bf3e a03c
00000050: 2e50 5bbd 5f47 22bd b3e8 203d 374f b73b
00000060: 0836 83ba a91c 373c 3327 5b3b 827a 043d
00000070: 640c ad3b 00f7 073c df53 8abc 6b3d 153c
00000080: 9a70 b3bc f559 873c 3e94 3b3d 4984 573c
00000090: 25ce 6d3c 5499 fd3c aa60 dc39 40c9 6dbb
000000a0: 8e20 b53b 315c 9ebc cd17 3e3c 0ae6 9cba
000000b0: ff6b 8bba f638 e53b b48d fdbb 71dc c83c
000000c0: bae8 0bbc ccbb 4abc a973 9b3c ff0b 90bd
000000d0: f0e0 a3ba b506 823a d17a 053b 35e7 e139
000000e0: 5b7a b73c e94a b3bb 5d35 653c bab4 073c
000000f0: 0f1e 12bb 06d2 ea3b 42a8 d33b 839d 803c
00000100: dd4a 233b 8ca5 b1ba 2c09 a6bb b571 afbc
00000110: 1bcc 13bd 4f65 2a3b 2e58 ee3b 7f4e 05bd
00000120: 8bce 3c3a 5bc6 b5bc 12ae cdbc d57e fb3b
00000130: b130 bcbb 2381 0d3c 7edb 30bc e929 773c
00000140: bf1b 3fbd

mlp_mini.motion_mlp.mlps.5.fc0.fc.weight f4 [12, 12]
-0.038080093 0.031088194 0.0053633843 -0.009053253 0.048939638 0.037288923 0.0581921 -0.027753474
0.0445073 -0.01258756 0.047826357 0.0060247867 -0.057667673 -0.040949687 -0.0831487 0.0055159
0.009314249 -0.075193554 0.02880857 0.02195291 0.0057955175 0.00019217814 -0.0323683 -0.052079655
0.0056388127 0.07089627 -0.04970452 0.044808704 0.06379953 0.013753651 6.343376e-05 -0.017509608
0.0069298395 0.029404746 -0.005649409 0.019134078 -0.0071040546 -0.010815728 0.017669652 -0.024977835
0.014846832 -0.010132341 0.00095490995 0.061553862 -0.03823703 -0.023699166 -0.035605278 -0.094680086
-0.04558873 -0.0039253207 0.00606992 0.016696746 -0.032088973 -0.012152265 -0.02460877 -0.07037189
0.03297734 0.0017447313 0.10382277 0.021474017 0.032745566 0.014374486 0.04770801 0.058218002
-0.01250697 -0.017040921 0.068515114 0.06318078 0.050276473 0.032339685 0.0019994825 0.006608717
0.012735456 0.028021052 0.0415979 -0.013698314 -0.006376567 -0.042365074 -0.012479596 -0.00088573503
0.05155279 -0.01465948 0.06969497 0.005340525 -0.0014301991 0.015404571 0.09590808 0.025949366
-0.009982125 0.037999213 -0.06624091 -0.04963523 -6.330091e-05 -0.028911574 -0.056444116 0.019191138
0.030074863 0.054306675 -0.011356576 -0.016795652 -0.0054998486 -0.0008679579 0.025098795 -0.00015342866
0.048113506 0.072148405 0.057348274 0.004442327 0.019243585 0.053750835 -0.049695224 0.056038238
0.023525935 -0.0017961507 -0.005154976 -0.03259709 0.032331944 -0.002114337 0.008585129 0.018292502
-0.05577533 0.06218736 0.020933006 -0.0020059992 -0.001019905 -0.058460195 -0.053429827 -0.03852522
0.0066975905 0.019252641 0.012232099 -0.010366581 -0.0013415329 0.032914188 0.03252926 0.047447376
0.02908411 0.02173589 -0.0840711 0.0016429643 0.018732475 -0.03457236 0.025891634 0.0037535252
00000000: dff9 1bbd abac fe3c 54bf af3b 1854 14bc
00000010: ee74 483d 45bc 183d d75a 6e3d 415b e3bc
00000020: 494d 363d 0e3c 4ebc 92e5 433d 936b c53b
00000030: f034 6cbd dcba 27bd de49 aabd b9be b43b
00000040: cb9a 183c 14ff 99bd f3ff eb3c 97d6 b33c
00000050: 53e8 bd3b 6d83 4939 9f94 04bd 7a51 55bd
00000060: cac5 b83b 1032 913d f796 4bbd 5589 373d
00000070: 54a9 823d fe56 613c be07 8538 4f70 8fbc
00000080: b513 e33b 39e2 f03c ad1e b9bb 12bf 9c3c
00000090: 21c9 e8bb 7434 31bc f2bf 903c 519e ccbc
000000a0: 2040 733c 1e02 26bc ec52 7a3a e71f 7c3d
000000b0: 6f9e 1cbd c124 c2bc d7d6 11bd a2e7 c1bd
000000c0: 40bb 3abd fa9f 80bb 2ee6 c63b 9dc7 883c
000000d0: ba6f 03bd 4b1a 47bc 5598 c9bc 231f 90bd
000000e0: 3f13 073d 78af e43a 08a1 d43d 47ea af3c
000000f0: 3720 063d f782 6b3c 7969 433d 0076 6e3d
00000100: 09ea 4cbc 6799 8bbc a751 8c3d ed64 813d
00000110: b4ee 4d3d 9e76 043d c009 033b f08d d83b
00000120: 60a8 503c 688c e53c 8f62 2a3d e56e 60bc
00000130: 85f2 d0bb 0087 2dbd 3877 4cbc ac30 68ba
00000140: 0529 533d 512e 70bc 3dbc 8e3d 92ff ae3b
00000150: 8575 bbba 7463 7c3c 756b c43d c493 d43c
00000160: 118c 23bc 10a5 1b3d 50a9 87bd 504e 4bbd
00000170: 6bc0 84b8 f7d7 ecbc f231 67bd bc36 9d3c
00000180: 8f5f f63c ad70 5e3d ef10 3abc 0997 89bc
00000190: 1338 b4bb ab87 63ba fd9b cd3c b1e1 20b9
000001a0: ab12 453d 8bc2 933d 06e6 6a3d f190 913b
000001b0: b9a4 9d3c d629 5c3d 388d 4bbd 5a88 653d
000001c0: 76b9 c03c d16c ebba 13eb a8bb 8784 05bd
000001d0: 806e 043d b090 0abb a4a8 0c3c 28da 953c
000001e0: ac74 64bd 2cb8 7e3d b27b ab3c 1577 03bb
000001f0: 55ae 85ba f573 6fbd 3cd9 5abd 9fcc 1dbd
00000200: 7677 db3b b7b7 9d3c 2469 483c 98d8 29bc
00000210: 60d6 afba 07d1 063d 673d 053d 2e58 423d
00000220: cd41 ee3c 770f b23c 782d acbd bc58 d73a
00000230: d974 993c bf9b 0dbd b11a d43c b4fd 753b

mlp_mini.motion_mlp.mlps.5.fc0.fc.bias f4 [12]
6.317825e-06 7.797096e-07 -7.158373e-06 -2.5899737e-06 4.165422e-06 4.1425255e-06 -1.9797362e-06 -1.0202966e-05
-7.169589e-06 -1.7841589e-06 -3.156897e-06 1.381831e-06
00000000: b4fd d336 3c4d 5135 f531 f0b6 69cf 2db6
00000010: b4c4 8b36 0600 8b36 9cdb 04b6 682d 2bb7
00000020: 4d92 f0b6 3c77 efb5 14db 53b6 5a77 b935

mlp_mini.motion_mlp.mlps.5.norm0.alpha f4 [1, 81, 1]
0.024260193 0.040612794 0.05705086 0.018195428 0.06995952 -0.031485803 0.014844424 0.0017738101
-0.08249223 0.051577915 0.10379746 0.003641931 0.006600604 0.006818137 0.030531537 0.06965326
0.024609124 -0.0015047817 0.016714178 0.032574315 0.16936208 0.005844707 0.14880726 0.17281495
0.0022619972 0.046500728 -0.07471554 0.010432438 -0.0025578246 0.07800248 0.016845794 0.0075496305
-0.05635078 -0.017241111 0.060862634 0.032838557 -0.0024060248 0.029826524 0.0108045135 0.043480717
-0.066431694 0.03977307 0.006556602 -0.0823628 0.028848315 0.017912433 0.028626477 0.029364102
0.014942688 0.058205727 0.025348682 0.047641687 0.06100867 0.106871456 0.044260066 0.09059925
0.007453741 0.03191774 0.052637402 0.025181092 -0.018722262 0.14221358 0.21598208 0.10824595
0.004687417 0.0040726173 0.044877194 0.07773331 0.16569728 0.04638443 0.10899807 -0.0012736985
-0.020026824 -0.08326293 0.043180715 0.14826834 -0.026613625 0.0014573049 0.028946286 -0.009413975
0.10179068
00000000: 50bd c63c 9a59 263d 2aae 693d 940e 953c
00000010: f046 8f3d 42f7 00bd 0736 733c 317f e83a
00000020: b0f1 a8bd 5d43 533d c393 d43d 77ad 6e3b
00000030: e149 d83b ae6a df3b 461d fa3c 5ea6 8e3d
00000040: 1399 c93c 183c c5ba 2cec 883c a56c 053d
00000050: 416d 2d3e f584 bf3b ee60 183e 67f6 303e
00000060: 043e 143b 8c77 3e3d 7604 99bd d1ec 2a3c
00000070: 2da1 27bb c4bf 9f3d 3100 8a3c e462 f73b
00000080: 13d0 66bd 3b3d 8dbc 194b 793d b981 063d
00000090: 66ae 1dbb c156 f43c 6a05 313c d618 323d
000000a0: 570d 88bd 16e9 223d c4d8 d63b d4ad a8bd
000000b0: 4d53 ec3c 18bd 923c 1382 ea3c fc8c f03c
000000c0: 2dd2 743c 2169 6e3d 0aa8 cf3c ee23 433d
000000d0: 3ae4 793d 6cdf da3d 0b4a 353d 198c b93d
000000e0: 833e f43b 2dbc 023d 519a 573d 9448 ce3c
000000f0: 6e5f 99bc 70a0 113e 682a 5d3e 0db0 dd3d
00000100: e798 993b 9773 853b 26d1 373d a432 9f3d
00000110: 8cac 293e 9afd 3d3d 613a df3d 3bf2 a6ba
00000120: 4b0f a4bc c185 aabd 43de 303d a8d3 173e
00000130: d104 dabc 0a03 bf3a c320 ed3c 133d 1abc
00000140: a277 d03d

mlp_mini.motion_mlp.mlps.5.norm0.beta f4 [1, 81, 1]
-0.019248556 -0.0069389027 0.0104221115 -0.024881588 0.0015544243 0.007460835 -0.0024252217 -0.028956676
0.0030223406 -0.0034744754 -0.018868502 -0.0027713242 -0.0023103869 -0.0011621295 0.015126559 -0.0252326
-0.008701477 0.008503493 -0.0023298808 -0.013995802 -0.020953976 0.017915022 -0.028990362 -0.0060937204
-0.00303749 0.015722955 0.0053706532 -0.0011083966 -0.0023599789 0.010522668 0.007433611 0.0028464685
0.001957228 0.01989421 0.004983842 -0.014611854 0.0035183888 -0.014512423 -0.0011146023 0.008681337
0.0059002945 0.008498356 -0.007339183 -0.00057191815 0.0038100462 -0.008774098 -0.0039689713 0.007964898
-0.0013606981 -0.011073415 -0.00055962265 -0.007719105 0.003960139 0.0013289261 -0.00048274954 -0.0015246663
-0.0019828822 0.013951321 0.0073798997 0.016536068 -0.0037864977 -0.015664214 0.009228671 0.011667015
-0.0034288547 -0.0023354937 0.021944331 0.009632561 0.039706983 -0.008241622 -0.0045135077 0.022513917
-0.00046908803 -0.024828782 0.0061016544 -0.0027386637 0.003245644 -0.006114119 -0.008891848 0.0074316384
-0.0035519092
00000000: 26af 9dbc bc5f e3bb 81c1 2a3c 79d4 cbbc
00000010: d3bd cb3a 057a f43b 78f0 1ebb 8d36 edbc
00000020: 7612 463b 06b4 63bb 1e92 9abc 1b9f 35bb
00000030: dc69 17bb 9852 98ba 63d5 773c 99b4 cebc
00000040: a490 0ebc 3c52 0b3c eab0 18bb a64e 65bc
00000050: aca7 abbc 86c2 923c 327d edbc d5ad c7bb
00000060: a010 47bb 6dcd 803c 4efc af3b 9e47 91ba
00000070: e0a9 1abb 4567 2c3c a695 f33b d18b 3a3b
00000080: d644 003b 2ff9 a23c 7f4f a33b 8f66 6fbc
00000090: c594 663b 84c5 6dbc d917 92ba 2b3c 0e3c
000000a0: 4257 c13b b03c 0b3c 877d f0bb c7ec 15ba
000000b0: f8b1 793b 3cc1 0fbc 250e 82bb 347f 023c
000000c0: 7459 b2ba 456d 35bc a4b3 12ba 8cf0 fcbb
000000d0: 0ec4 813b 5c2f ae3a 8c19 fdb9 50d7 c7ba
000000e0: 3ef3 01bb 1594 643c 16d3 f13b a676 873c
000000f0: e426 78bb 3d52 80bc da33 173c 0227 3f3c
00000100: a3b6 60bb 150f 19bb 99c4 b33c e4d1 1d3c
00000110: caa3 223d de07 07bc 0ce6 93bb 1b6f b83c
00000120: eeef f5b9 bb65 cbbc 63f0 c73b 277b 33bb
00000130: dfb4 543b f358 c8bb 1daf 11bc 1a85 f33b
00000140: 26c7 68bb
