exps/baseline_h36m/log/snapshot/model_LSTM_best.pth (torch, 289412 bytes, 57 tensors)

mlp_mini.motion_mlp.mlps.0.fc0.fc.weight f4 [12, 12]
-0.013863042 0.0069309706 0.0033447982 -0.005396058 -0.006810904 -0.014230304 -0.048081838 -0.02971778
0.08540351 0.053165726 -0.072666794 -0.0013753565 0.04296241 -0.013199858 -0.0093365945 -0.014229278
-0.0057653245 0.016823815 0.03829349 0.03385156 0.0033614605 0.02009408 -0.04159842 -0.054207843
0.012973957 0.005125618 -0.007129487 -0.0074471817 -0.013197757 -0.016663576 0.037995674 0.042463537
-0.059790954 -0.05047003 0.044504825 -0.022121513 0.0005087967 -0.009912499 -0.0045475233 -0.0038233297
0.00510487 0.016769744 0.019747607 -0.0014586418 0.03660926 0.054713085 -0.107862234 -0.028083099
-0.0044647264 5.442641e-05 -0.0064926306 -0.0043604057 -0.008985835 -0.010890701 0.017749075 0.03821834
-0.06098714 -0.050308615 0.05575105 -0.015895471 0.00028907307 -0.0001102042 -0.0019732772 0.0028630993
-0.0035090467 -0.015149145 -0.0039010588 0.029421043 -0.034423497 -0.050316572 0.047247138 -0.029593246
-0.0030483261 0.0039743735 -0.0011873826 0.0020398805 0.0066359593 0.00025761875 -0.010836541 0.0071910913
0.05856106 0.022175478 -0.041624863 -0.04110044 -0.0068549016 -0.084096864 0.0031951591 0.03540785
0.021507611 -0.01310945 -0.04259577 -0.020764196 0.0026001069 -0.011821447 0.012664148 -0.06252558
-0.015005758 0.018523771 -0.00037328844 0.0029087092 0.010682221 -0.006496951 -0.08172832 -0.08776391
0.0142514305 0.032637995 0.0059830244 -0.021916915 -0.013702711 -0.009677235 0.017465463 0.024304124
0.0034820416 -0.028163938 -0.033448827 0.027160708 0.062165506 -0.040873747 0.0645174 -0.0071693654
0.0027271984 -0.0141332755 0.0021489726 0.015195212 0.0067964513 -0.01885388 -0.030970419 0.012221573
-0.032408275 -0.044066727 0.04496576 -0.0032497325 -0.0026616764 -0.044042464 -0.02791419 -0.030955642
-0.01847982 0.011650621 -0.0048145656 -0.0351096 0.0027238731 0.017551437 -0.06785039 0.03691308
00000000: d021 63bc 321d e33b 6734 5b3b 6ad1 b0bb
00000010: 012e dfbb 3926 69bc 76f1 44bd b472 f3bc
00000020: 09e8 ae3d 4ec4 593d 54d2 94bd 4e45 b4ba
00000030: 5af9 2f3d 3844 58bc 84f8 18bc eb21 69bc
00000040: 0ceb bcbb 19d2 893c a2d9 1c3d efa7 0a3d
00000050: f34b 5c3b 579c a43c 1b63 2abd 0b09 5ebd
00000060: b890 543c cdf4 a73b 799e e9bb 7d07 f4bb
00000070: 683b 58bc 0d82 88bc 5aa1 1b3d 3fee 2d3d
00000080: 5ce7 74bd aab9 4ebd b14a 363d 2d38 b5bc
00000090: c560 053a 0968 22bc 6403 95bb d490 7abb
000000a0: c146 a73b b460 893c bcc5 a13c e62f bfba
000000b0: 97f3 153d d41a 603d e0e6 dcbd 870e e6bc
000000c0: d74c 92bb ea47 6438 22c0 d4bb bce1 8ebb
000000d0: 5339 13bc e96e 32bc 8266 913c d68a 1c3d
000000e0: a7cd 79bd 6810 4ebd 375b 643d 3837 82bc
000000f0: bb8e 9739 6e1d e7b8 1952 01bb d6a2 3b3b
00000100: 09f8 65bb 1f34 78bc e8a8 7fbb 6604 f13c
00000110: a7ff 0cbd c018 4ebd 3786 413d 896d f2bc
00000120: 6dc6 47bb 763b 823b f3a1 9bba 84af 053b
00000130: 7672 d93b 0111 8739 bf8b 31bc 3fa3 eb3b
00000140: b9dd 6f3d 59a9 b53c d57e 2abd ef58 28bd
00000150: 159f e0bb fa3a acbd e065 513b d207 113d
00000160: bb30 b03c 05c9 56bc e778 2ebd ad19 aabc
00000170: 8e66 2a3b beae 41bc 497d 4f3c 690d 80bd
00000180: b6da 75bc 2abf 973c edb5 c3b9 0ba0 3e3b
00000190: 7b04 2f3c 60e4 d4bb 2d61 a7bd 91bd b3bd
000001a0: d57e 693c 6baf 053d 3f0d c43b 1a8b b3bc
000001b0: 5681 60bc 448d 1ebc bb13 8f3c 7119 c73c
000001c0: f732 643b 0fb8 e6bc a301 09bd 2280 de3c
000001d0: 42a1 7e3d 3b6b 27bd b321 843d ffec eabb
000001e0: ccba 323b 418f 67bc c7d5 0c3b 57f5 783c
000001f0: c4b4 de3b 7473 9abc adb5 fdbc fe3c 483c
00000200: 8abe 04bd 507f 34bd 042e 383d 77f9 54bb
00000210: 856f 2ebb df65 34bd 4dac e4bc b096 fdbc
00000220: fe62 97bc 3fe2 3e3c 81c3 9dbb 15cf 0fbd
00000230: 0283 323b 08c8 8f3c 25f5 8abd 2b32 173d

mlp_mini.motion_mlp.mlps.0.fc0.fc.bias f4 [12]
0.00018783793 2.3789008e-07 1.3620685e-05 -3.2970256e-05 -5.4848264e-05 -5.9757967e-05 6.1389583e-06 -2.4207202e-05
-3.2106764e-05 2.3799206e-05 1.4575407e-05 -6.876265e-06
00000000: 5cf6 4439 ba6e 7f34 6684 6437 8b49 0ab8
00000010: e00c 66b8 a1a4 7ab8 40fd cd36 9210 cbb7
00000020: 60aa 06b8 68a4 c737 e588 7437 abba e6b6

mlp_mini.motion_mlp.mlps.0.norm0.alpha f4 [1, 99, 1]
-0.05602053 0.3147157 0.35502708 0.35863027 0.3454923 0.33289263 0.27236208 0.33026963
-0.0020741266 0.35662216 -0.0023428795 0.331957 0.22659326 0.11240593 -0.0026143896 0.3896797
0.3047954 0.12567866 0.23381329 0.18193765 0.33090723 0.31281254 0.33651975 0.33241567
-0.0031913128 -0.001579217 0.23851907 0.42655468 0.26663318 0.28071168 0.054866977 0.09465653
-0.0014855847 0.3569624 0.3007982 0.34481296 0.33645022 0.29546896 0.35338145 0.44267383
0.317798 0.29874495 0.081719145 0.29666686 0.081659056 0.346392 -0.010980594 0.37400296
0.48314366 0.34803343 0.33142892 0.33412826 -0.0012758399 0.011247408 0.09340024 0.3316505
0.082519196 0.26670215 0.2846111 0.016063882 0.11526354 0.33498478 0.08075492 -0.039241515
-0.035340477 0.34255338 0.32214102 0.34994859 0.29341212 0.18427986 -0.0030264861 0.082186885
0.30317533 0.27600035 0.061342932 0.005534259 0.35611528 -0.016848221 -0.014543788 -0.0075999917
0.24960926 0.074148916 0.2943487 -0.0007535781 0.3232331 0.28464234 0.26505178 0.3174742
0.28499275 0.35026482 0.25368875 -0.0013095718 0.46833667 0.3223755 -0.011193034 -0.018351456
0.31193954 0.3316311 0.064120166
00000000: c975 65bd 6b22 a13e 1cc6 b53e 639e b73e
00000010: 5ee4 b03e e770 aa3e 0b73 8b3e 1a19 a93e
00000020: 12ee 07bb 2e97 b63e ff8a 19bb 45f6 a93e
00000030: 1008 683e 1535 e63d 2e56 2bbb 1984 c73e
00000040: 250e 9c3e e8b1 003e c06c 6f3e dd4d 3a3e
00000050: ac6c a93e f728 a03e 514c ac3e 6332 aa3e
00000060: 5825 51bb bbfd ceba 583e 743e 6065 da3e
00000070: 2584 883e 71b9 8f3e 32bc 603d 48db c13d
00000080: f3b7 c2ba c7c3 b63e 3902 9a3e 538b b03e
00000090: 3443 ac3e b547 973e 6aee b43e 25a6 e23e
000000a0: 6bb6 a23e 19f5 983e 5e5c a73d b8e4 973e
000000b0: dd3c a73d 4b5a b13e f3e7 33bc 517d bf3e
000000c0: 9b5e f73e 7031 b23e 0db1 a93e dc12 ab3e
000000d0: 153a a7ba 0c47 383c a048 bf3d 18ce a93e
000000e0: d3ff a83d 2f8d 883e 8cb8 913e 6798 833c
000000f0: 4a0f ec3d 2083 ab3e d662 a53d b6bb 20bd
00000100: 2dc1 10bd 2863 af3e abef a43e 762c b33e
00000110: 1d3a 963e dcb3 3c3e 0358 46bb 9951 a83d
00000120: cc39 9b3e eb4f 8d3e ba42 7b3d bb58 b53b
00000130: be54 b63e 4805 8abc 1149 6ebc 5a09 f9bb
00000140: 9299 7f3e 63db 973d dfb4 963e c58b 45ba
00000150: cf7e a53e a4bc 913e deb4 873e fa8b a23e
00000160: 92ea 913e e955 b33e 7ee3 813e f0a5 abba
00000170: d3c9 ef3e 670e a53e fd62 37bc cb55 96bc
00000180: 8ab6 9f3e 8dcb a93e 6f51 833d

mlp_mini.motion_mlp.mlps.0.norm0.beta f4 [1, 99, 1]
-0.0009734304 -0.0073851505 -0.0027018455 0.0029950934 -0.0056963847 -0.010790628 0.029679613 -0.0036038964
-0.0010505803 -0.02237485 -0.0021982053 0.01421922 0.0031917237 -0.004569776 -0.0016823569 -0.041357044
0.011404715 0.0056863497 -0.007511784 -0.009739742 0.02146568 -0.004871248 -0.001111571 -0.0030865008
0.02310881 -0.0018602262 0.0037276933 0.040613923 -0.0149817625 0.0047279457 -0.0054399604 -0.025454074
-0.0014245 -0.008253471 0.006339912 -0.0058722054 -0.014613378 -0.015333799 0.008784748 -0.008547254
-0.002506203 -0.0039062784 0.0026931711 -0.026328202 -0.0054002674 -0.00944607 0.008494684 -0.040018547
0.070219554 0.0052770977 -0.003892348 0.016865471 -0.0024049624 -0.007418116 -0.014647479 0.00924025
-0.004270734 0.009494824 -0.009874619 -0.003475623 -0.009990443 -0.029496085 -0.012574654 -0.026476074
0.004188999 0.032167315 0.015511269 0.012683822 0.02929823 0.004697227 -0.0021613094 0.014735878
0.0049770903 0.0033213517 0.00063531456 -0.005358512 -0.015323164 -0.014808533 -0.003491425 -0.0022679034
-0.0076005226 -0.021028744 -0.016173096 -0.0025488308 0.003113712 0.011831845 -0.0012227182 0.013378327
0.016128331 -0.008680927 -0.0038601398 -0.0018977785 0.0056192284 -0.022139952 -1.096066e-05 0.041544385
0.00858137 -0.02543604 -0.0033828903
00000000: cf2d 7fba 22ff f1bb 7211 31bb 5449 443b
00000010: bda8 babb 2dcb 30bc a922 f33c 592f 6cbb
00000020: a0b3 89ba 764b b7bc c40f 10bb bbf7 683c
00000030: 3d2c 513b 0fbe 95bb 8882 dcba 0166 29bd
00000040: d7da 3a3c 8f54 ba3b 6925 f6bb 7093 1fbc
00000050: cbd8 af3c fd9e 9fbb 22b2 91ba e446 4abb
00000060: b04e bd3c d5d2 f3ba 514c 743b c95a 263d
00000070: 1176 75bc e2ec 9a3b b241 b2bb 1085 d0bc
00000080: 4ab6 baba 9139 07bc 09bf cf3b a16b c0bb
00000090: f36c 6fbc 9d3a 7bbc e7ed 0f3c c809 0cbc
000000a0: 1c3f 24bb 3d00 80bb ea7f 303b 3eae d7bc
000000b0: baf4 b0bb b0c3 1abc 492d 0b3c 7dea 23bd
000000c0: 45cf 8f3d 81eb ac3b c316 7fbb 7529 8a3c
000000d0: 939c 1dbb ab13 f3bb fbfb 6fbc 6b64 173c
000000e0: 83f1 8bbb 2e90 1b3c 27c9 21bc 47c7 63bb
000000f0: f4ae 23bc c6a1 f1bc ec05 4ebc 5ae4 d8bc
00000100: df43 893b e0c1 033d fa22 7e3c cecf 4f3c
00000110: d702 f03c 32eb 993b c1a4 0dbb c16e 713c
00000120: dc16 a33b 09ab 593b 3d8b 263a 7596 afbb
00000130: 020e 7bbc 7d9f 72bc 64d0 64bb 1ba1 14bb
00000140: ce0d f9bb 7944 acbc 717d 84bc 490a 27bb
00000150: 6b0f 4c3b 5bda 413c 9d43 a0ba c530 5b3c
00000160: 901f 843c 723a 0ebc 66fa 7cbb e1be f8ba
00000170: 8121 b83b d85e b5bc ade3 37b7 722a 2a3d
00000180: e098 0c3c 3e5f d0bc 7bb3 5dbb

mlp_mini.motion_mlp.mlps.1.fc0.fc.weight f4 [12, 12]
0.056085825 0.025356352 -0.024479978 0.006129391 -0.037435718 -0.022873117 0.014622515 0.0032544818
0.024713267 0.0003532461 -0.037409794 -0.026032217 -0.0022067546 0.0244579 0.049670167 0.05283507
0.018688243 0.026629627 -0.026484283 0.015019692 -0.0032813943 -0.040049165 0.007206379 0.041517437
-0.03601004 0.035546117 0.04473792 0.0564231 0.026016193 0.020623785 0.024504913 -0.015363194
-0.0020883256 -0.003889403 -0.0012377459 -0.01585736 0.037088625 -0.0018713267 0.011520618 0.06533103
-0.012074215 0.016699798 -0.013863292 -0.01755419 0.013110845 -0.03382957 -0.0112611195 0.021780575
-0.037635833 -0.0058621354 0.036649548 -0.03945019 0.043968722 0.016444443 0.012854281 -0.020409992
-0.046685345 -0.0019887497 -0.013061012 -0.011262677 -0.057764284 0.0108185345 0.03382573 -0.034368955
0.043072358 0.016965702 -0.004178387 0.003784126 0.0072363834 -0.008223018 0.030399876 -0.015397089
0.10043705 -0.009236015 -0.048006196 0.024046699 -0.06444366 -0.017499372 -0.012539891 0.009033545
0.054729585 0.013199999 0.004429984 -0.028453214 0.015902795 0.064075686 -0.03722495 0.0033106979
-0.030999258 -0.022038631 -0.004959352 0.04042532 -0.020664299 0.022560304 0.015096862 -0.0104246065
0.04180609 0.0016416701 -0.040175382 0.043626703 -0.042864323 -0.013224028 0.03752872 0.03215835
0.028415455 0.020040251 -0.0075431718 -0.006717276 0.011108409 -0.020691046 -0.0028054554 -0.051495
0.025500987 0.021792833 0.010811173 0.049767442 0.019609835 -0.013436812 0.011828786 -0.015662538
0.021300817 0.0463194 -0.019763473 -0.011481478 -0.0065710987 0.0027483776 0.05148026 0.024746358
0.0128172375 0.0637196 -0.003212068 -0.0104834605 -0.008699377 -0.035502695 -0.058189094 0.032160643
-0.06727162 -0.03391192 -0.0076833973 -0.012857802 -0.023046536 0.020477217 0.0022552935 0.011697729
00000000: 40ba 653d 20b8 cf3c 3c8a c8bc 0fd9 c83b
00000010: 3256 19bd 6760 bbbc 4693 6f3c 2549 553b
00000020: 7a73 ca3c e433 b939 033b 19bd 8441 d5bc
00000030: 339f 10bb ef5b c83c f272 4b3d 9669 583d
00000040: 1618 993c 6026 da3c 91f5 d8bc 2715 763c
00000050: a90c 57bb 980a 24bd 7d23 ec3b 300e 2a3d
00000060: 447f 13bd ce98 113d 1c3f 373d e91b 673d
00000070: e91f d53c 36f3 a83c 87be c83c e8b5 7bbc
00000080: 4adc 08bb 5be5 7ebb dc3b a2ba 4be7 81bc
00000090: 3eea 173d 4e47 f5ba f9c0 3c3c 46cc 853d
000000a0: eed2 45bc 04ce 883c dc22 63bc cecd 8fbc
000000b0: dfce 563c e090 0abd 8f80 38bc 2d6d b23c
000000c0: 0828 1abd 2817 c0bb d61d 163d 8696 21bd
000000d0: 8c18 343d 7fb6 863c c39a 523c db32 a7bc
000000e0: 2239 3fbd af55 02bb dbfd 55bc 1787 38bc
000000f0: 3e9a 6cbd 3940 313c d98c 0a3d 76c6 0cbd
00000100: a46c 303d a8fb 8a3c daea 88bb 19ff 773b
00000110: 2f1f ed3b d6b9 06bc 2909 f93c 1244 7cbc
00000120: f1b1 cd3d a852 17bc 25a2 44bd 95fd c43c
00000130: 0afb 83bd d85a 8fbc 1d74 4dbc 6f01 143c
00000140: 212c 603d cf44 583c 6629 913b b716 e9bc
00000150: 9446 823c 1d3a 833d 3079 18bd 4bf8 583b
00000160: 28f2 fdbc 5c8a b4bc 0f82 a2bb 0595 253d
00000170: 2d48 a9bc 63d0 b83c d458 773c f8cb 2abc
00000180: dd3c 2b3d 4f2d d73a f18e 24bd eab1 323d
00000190: 8092 2fbd 98a9 58bc b7b7 193d 79b8 033d
000001a0: 87c7 e83c 742b a43c b62c f7bb 981c dcbb
000001b0: 0b00 363c 4580 a9bc bbdb 37bb 6cec 52bd
000001c0: 72e7 d03c e286 b23c 5921 313c f2d8 4b3d
000001d0: cea4 a03c 1326 5cbc 86cd 413c b94e 80bc
000001e0: 0d7f ae3c 69b9 3d3d 02e7 a1bc cf1c 3cbc
000001f0: 5f52 d7bb 201e 343b f7dc 523d e0b8 ca3c
00000200: 64ff 513c 6c7f 823d 8f81 52bb d2c2 2bbc
00000210: d587 0ebc 466b 11bd b057 6ebd e1ba 033d
00000220: b4c5 89bd 3ae7 0abd 02c5 fbbb 88a9 52bc
00000230: 17cc bcbc d6bf a73c 8ccd 133b d5a7 3f3c

mlp_mini.motion_mlp.mlps.1.fc0.fc.bias f4 [12]
-3.068381e-06 4.7538697e-06 1.5007543e-06 1.7471531e-05 -5.684258e-06 -9.776153e-06 -3.548672e-05 -1.8984662e-06
2.5239328e-06 9.138239e-06 -2.776819e-06 -2.404209e-06
00000000: 62ea 4db6 6e83 9f36 866d c935 d48f 9237
00000010: 68bb beb6 4204 24b7 93d7 14b8 cdce feb5
00000020: d660 2936 7050 1937 6359 3ab6 ff57 21b6

mlp_mini.motion_mlp.mlps.1.norm0.alpha f4 [1, 99, 1]
-0.03018359 0.2308534 0.22201873 0.25531322 0.26960483 0.27393013 0.20465879 0.2619616
-0.0007938455 0.2841228 -0.0016388189 0.26666397 0.05682121 0.028031815 0.0025724054 0.34393835
0.20167053 0.022549346 0.15192623 0.07982926 0.17415872 0.19702734 0.26742363 0.28489763
-0.043995045 -0.0020706395 0.14573455 0.434996 0.19782239 0.20965365 0.00414834 0.009986528
0.00084633223 0.3152471 0.17414622 0.28592277 0.23110914 0.23552765 0.27838266 0.44027343
0.23799983 0.21064132 0.032812566 0.19745679 0.013706783 0.31366423 -0.0113888895 0.27562076
0.4943455 0.2768872 0.2598199 0.24926586 -0.0015915134 0.008799605 0.106213234 0.30106
0.004370617 0.23596744 0.21401535 -0.02410817 0.07342304 0.28309172 0.09578882 -0.041999105
-0.060600877 0.32212633 0.25418237 0.3134137 0.2461135 0.13339613 -0.0022030247 0.089205176
0.24689518 0.18303278 -0.04366881 0.0043581333 0.31295717 -0.015461046 -0.010465916 0.0049458886
0.21650197 0.02944549 0.19896373 -0.0017454546 0.3110685 0.19930454 0.12765802 0.17631814
0.16396345 0.24119198 0.27391437 -0.0016238717 0.45115 0.23803526 -0.009489822 -0.05684816
0.25575498 0.27357563 0.060572736
00000000: 9343 f7bc d564 6c3e e158 633e 6ab8 823e
00000010: a509 8a3e 9240 8c3e 1392 513e d51f 863e
00000020: 121a 50ba 8b78 913e a3cd d6ba 2e88 883e
00000030: 5bbd 683d faa2 e53c cd95 283b b018 b03e
00000040: b882 4e3e 68b9 b83c 8d92 1b3e 867d a33d
00000050: aa56 323e 89c1 493e c0eb 883e 1ade 913e
00000060: 2634 34bd 91b3 07bb 703b 153e ccb7 de3e
00000070: f491 4a3e 72af 563e ccee 873b 899e 233c
00000080: 65dc 5d3a 1168 a13e 6353 323e 7864 923e
00000090: e0a7 6c3e 292e 713e 2c88 8e3e 856b e13e
000000a0: 3ab6 733e 5cb2 573e 7866 063d 1d32 4a3e
000000b0: 6a92 603c 9998 a03e 7798 3abc 2a1e 8d3e
000000c0: da1a fd3e 29c4 8d3e 1d07 853e 8d3f 7f3e
000000d0: 549a d0ba 382c 103c 5386 d93d 8924 9a3e
000000e0: 6537 8f3b 73a1 713e d726 5b3e 7f7e c5bc
000000f0: d25e 963d 66f1 903e ee2c c43d 4107 2cbd
00000100: a038 78bd beed a43e 3124 823e c377 a03e
00000110: 2d05 7c3e ff98 083e 9f60 10bb 34b1 b63d
00000120: 17d2 7c3e f26c 3b3e 11de 32bd acce 8e3b
00000130: ec3b a03e 5450 7dbc 3c79 2bbc 1f11 a23b
00000140: b1b2 5d3e ab37 f13c 26bd 4b3e bdc7 e4ba
00000150: 5f44 9f3e 7d16 4c3e c9b8 023e be8c 343e
00000160: 09e6 273e 08fb 763e 813e 8c3e 18d8 d4ba
00000170: 22fd e63e 84bf 733e 337b 1bbc 9ed9 68bd
00000180: 51f2 823e 1b12 8c3e 1e1b 783d

mlp_mini.motion_mlp.mlps.1.norm0.beta f4 [1, 99, 1]
-0.0016170663 0.005473737 -0.003015555 -0.017220097 -0.005436279 -0.044183362 0.000152296 -0.012509436
0.0011099335 -0.004623072 0.0009020903 0.013325453 0.04203421 0.0034804938 0.0009651511 -0.027740883
-0.0200731 0.009212981 0.006035816 -0.0069709425 -0.010172891 0.023884803 0.008542895 -0.0147187365
0.022206988 0.0010997205 -0.0086618755 -0.10538461 0.013161987 0.012878809 0.0055661607 -0.03037597
0.00134383 -0.015664494 0.009034477 0.006322496 0.003838238 0.019240996 0.0017861811 -0.05230052
-0.020471014 -0.00051761663 0.0054132943 0.009484552 -0.00022166244 0.0013664134 -0.0038042967 0.010057038
-0.05808255 -0.03695514 -0.025726153 0.018164266 0.00045222774 -0.0089223785 0.011658127 -0.022928543
-0.0021951278 -0.0028443784 -0.018232718 -0.0043086265 -0.007989399 -0.016776688 -0.00532568 -0.03233229
0.0051928707 0.06903399 -0.01187325 -0.011889329 0.0074623297 0.0021012651 0.00079078594 0.0012538567
-0.004983892 0.022236614 0.0008108496 -0.0027610864 -0.030968418 -0.010895483 0.0102516785 0.0007934973
0.00569567 0.0032226157 -0.0019133117 0.0007505427 -0.0051283133 0.0045407573 -0.018807657 0.030084495
0.007889583 0.03860444 0.024564631 0.000989406 0.1198381 -0.012483033 0.0025431542 0.06393572
0.004712397 -0.00035701334 0.01368576
00000000: bef3 d3ba 095d b33b 9ea0 45bb 2911 8dbc
00000010: d022 b2bb 9df9 34bd a5b1 1f39 61f4 4cbc
00000020: 307b 913a 247d 97bb 417a 6c3a 0053 5a3c
00000030: 102c 2c3d ff18 643b 3202 7d3a d940 e3bc
00000040: 5870 a4bc 0bf2 163c 18c8 c53b 816c e4bb
00000050: 33ac 26bc 10aa c33c 80f7 0b3c db26 71bc
00000060: 6eeb b53c 7f24 903a 8aea 0dbc e3d3 d7bd
00000070: 60a5 573c a401 533c 5764 b63b 07d7 f8bc
00000080: 7423 b03a d352 80bc 5805 143c f12c cf3b
00000090: f38a 7b3b 4b9f 9d3c 4b1e ea3a 1239 56bd
000000a0: d4b2 a7bc aab0 07ba 0162 b13b 1865 1b3c
000000b0: 0f6e 68b9 3a19 b33a 8251 79bb 46c6 243c
000000c0: f8e7 6dbd 465e 17bd a7bf d2bc 3acd 943c
000000d0: fb18 ed39 2b2f 12bc bb01 3f3c a4d4 bbbc
000000e0: 22dc 0fbb c068 3abb c85c 95bc 612f 8dbb
000000f0: f8e5 02bc 446f 89bc 0b83 aebb dd6e 04bd
00000100: f528 aa3b b161 8d3d 0588 42bc 76cb 42bc
00000110: 8f86 f43b 61b5 093b bf4c 4f3a 7358 a43a
00000120: eb4f a3bb 8f29 b63c 328f 543a 58f3 34bb
00000130: 7bb1 fdbc f882 32bc a8f6 273c b402 503a
00000140: bea2 ba3b 8532 533b 16c8 faba 11c0 443a
00000150: 690b a8bb a2ca 943b 8412 9abc c273 f63c
00000160: 4f43 013c b01f 1e3d c43b c93c f5ae 813a
00000170: ae6d f53d a385 4cbc 0cab 263b bbf0 823d
00000180: 746a 9a3b 852d bbb9 3d3a 603c

mlp_mini.motion_mlp.mlps.2.fc0.fc.weight f4 [12, 12]
-0.04877283 0.030602679 0.02768219 -0.02218641 0.01951152 -0.043672714 -0.0076098745 -0.014556744
0.010459674 -0.050933737 0.0138230175 -0.0101587195 -0.0071145496 0.00033700143 0.030389449 -0.016097283
0.031085148 -0.036290385 -0.047754403 0.031013915 -0.018258946 -0.028756266 -0.005642248 -0.005133018
-0.019654287 -0.005077087 -0.034845468 0.003340604 -0.044956025 -0.031626098 0.009202094 -0.035634365
-0.007567752 -0.031653516 -0.025318954 0.059239324 0.03013002 -0.0018124386 0.009559112 -0.0039025233
0.021382062 -0.08245041 0.052911755 0.0045313183 -0.014697459 -0.008397132 -0.02161937 -0.024780046
-0.04425772 0.039555945 0.037895933 -0.008860099 0.030068336 0.013914914 -0.09976994 -0.03648679
-0.0055820644 -0.017489567 0.0020794696 -0.045774158 -0.010731521 -0.025709363 -0.020937331 -0.036790535
0.0046767388 0.008231051 -0.055746906 -0.04922782 -0.019055652 -0.0115134185 0.0028452664 0.019209862
0.03036564 0.008273001 -0.004505491 -0.023648407 -0.015773091 -0.07993868 -0.020201847 -0.0011089197
-0.0073835696 -0.0068005333 -0.013019773 0.04114816 -0.022152415 -0.03214663 0.011266852 -0.023746302
0.018995259 -0.025489748 -0.05766913 0.009808238 -0.010492742 -0.046440415 0.015326761 0.009492606
0.008509119 -0.059560407 -0.02723908 -0.022413336 -0.04937141 -0.046822112 0.0346819 -0.050771877
0.0041028704 -0.026477808 -0.011442112 0.009790769 -0.0141507955 0.005122358 0.03304295 -0.06079349
0.028210253 0.023266843 -0.0334443 -0.0133716585 0.0016635085 0.016071044 0.04806624 -0.042736724
-0.018131709 0.0017036626 -0.06701791 -0.04520491 -0.022526847 -0.032467227 -0.021796742 -0.054464005
-0.048884574 0.026533583 -0.016557423 0.00737664 -0.037099093 0.028764812 0.041025 0.0075715063
0.0750006 0.013736424 -0.07416796 0.0056681912 -0.00054581166 -0.0101286685 0.01052515 0.016980212
00000000: 05c6 47bd 78b2 fa3c c3c5 e23c 46c0 b5bc
00000010: a0d6 9f3c 29e2 32bd 415c f9bb 697f 6ebc
00000020: 0d5f 2b3c e59f 50bd f079 623c c270 26bc
00000030: 2b21 e9bb 91af b039 4bf3 f83c 73de 83bc
00000040: 48a6 fe3c 3aa5 14bd 1f9a 43bd e510 fe3c
00000050: c993 95bc 4392 ebbc 9be2 b8bb e032 a8bb
00000060: 0702 a1bc b15d a6bb 1fba 0ebd 09ee 5a3b
00000070: cf23 38bd 5e8a 01bd 61c4 163c 57f5 11bd
00000080: e8fa f7bb 1ea7 01bd b269 cfbc efa4 723d
00000090: 3bd3 f63c 598f edba d29d 1c3c 7ac1 7fbb
000000a0: 6f29 af3c c3db a8bd ffb9 583d 747b 943b
000000b0: 9ccd 70bc 2094 09bc 1b1b b1bc 86ff cabc
000000c0: 9547 35bd 6a05 223d c438 1b3d f329 11bc
000000d0: df51 f63c 61fb 633c 2f54 ccbd 2c73 15bd
000000e0: c0e9 b6bb 4846 8fbc b647 083b af7d 3bbd
000000f0: 43d3 2fbc 719c d2bc c484 abbc acb1 16bd
00000100: 543f 993b 88db 063c de56 64bd 1ca3 49bd
00000110: 991a 9cbc c7a2 3cbc a677 3a3b 005e 9d3c
00000120: 5dc1 f83c 7b8b 073c cca2 93bb 4eba c1bc
00000130: 9236 81bc e4b6 a3bd 587e a5bc 2c59 91ba
00000140: dff1 f1bb 02d7 debb e350 55bc f98a 283d
00000150: fb78 b5bc 2fac 03bd 9a98 383c 9b87 c2bc
00000160: f29b 9b3c e0cf d0bc 7736 6cbd bbb2 203c
00000170: c0e9 2bbc 4e38 3ebd 181d 7b3c e086 1b3c
00000180: d569 0b3c 9df5 73bd 7e24 dfbc 2c9c b7bc
00000190: ad39 4abd 8bc8 3fbd 9c0e 0e3d 2cf6 4fbd
000001a0: 5f71 863b fde7 d8bc b277 3bbc 7669 203c
000001b0: bdd8 67bc 74d9 a73b 0b58 073d 9802 79bd
000001c0: 3019 e73c 1b9a be3c e4fc 08bd cd14 5bbc
000001d0: 150a da3a 6ca7 833c 1be1 443d b40c 2fbd
000001e0: f388 94bc 6e4d df3a b040 89bd c928 39bd
000001f0: 398a b8bc 5bfc 04bd 158f b2bc a615 5fbd
00000200: 313b 48bd f55c d93c 6fa3 87bc beb7 f13b
00000210: 38f5 17bd 2fa4 eb3c d509 283d 661a f83b
00000220: ea99 993d bd0e 613c 5fe5 97bd 3cbc b93b
00000230: cd14 0fba b7f2 25bc ae71 2c3c 161a 8b3c

mlp_mini.motion_mlp.mlps.2.fc0.fc.bias f4 [12]
1.2111674e-07 -8.333516e-07 -7.1518757e-06 6.188241e-07 -1.1674356e-07 -4.0782957e-06 -1.088715e-06 -1.778597e-06
-5.8830856e-09 -3.2688145e-06 -7.1099447e-07 1.2905531e-06
00000000: 510c 0234 7cb3 5fb5 25fa efb6 451d 2635
00000010: 73b4 fab3 4bd8 88b6 f61f 92b5 21b8 eeb5
00000020: 2b24 cab1 ce5d 5bb6 2bdb 3eb5 1137 ad35

mlp_mini.motion_mlp.mlps.2.norm0.alpha f4 [1, 99, 1]
0.022983883 0.20322494 0.040594697 0.117270626 0.17915444 0.21020086 0.07364445 0.17886573
0.0022766716 0.19515355 0.0011981976 0.15863965 0.20590697 -0.004092277 0.00050053507 0.2273179
0.17838685 -0.014861313 0.079585396 0.122085266 0.3544138 0.1519945 0.23030207 0.19308539
0.0089504905 0.00070064265 0.11406858 0.21482547 0.10296641 0.16088998 0.050035533 0.07119153
0.0010327526 0.23776072 0.13365978 0.19824828 0.17920698 0.1720366 0.13967793 0.28830436
0.18657324 0.16642796 -0.025504751 0.15636173 -0.023048565 0.16793345 0.0634125 0.1934831
0.25574678 0.11440927 0.23130284 0.18758045 -0.00023490233 0.008815693 0.010772143 0.17928928
-0.033234417 0.030262904 0.11030733 -0.016522434 0.0066771116 0.2719177 0.0022860172 -0.05797518
-0.04689033 0.12624376 0.19379374 0.26083937 0.16267689 0.053693347 -0.00020247824 0.019625776
0.15899606 0.1211731 0.054628357 0.009163048 0.24696094 -0.043446135 0.009570224 -0.0003766505
0.10352056 -0.021417627 0.16028233 -0.0003863299 0.164393 0.17943649 0.1401677 0.096648164
0.14695983 0.12507036 0.13442671 0.0016424287 0.29894546 0.21756311 0.0055073597 0.14787157
0.18069713 0.15741123 0.003742918
00000000: b248 bc3c 331a 503e a046 263d 952b f03d
00000010: 4374 373e e53e 573e e7d2 963d 9428 373e
00000020: 3634 153b 55d6 473e d70c 9d3a 6f72 223e
00000030: 47d9 523e 8218 86bb 5736 033a 06c6 683e
00000040: 0bab 363e dd7c 73bc abfd a23d d707 fa3d
00000050: ba75 b53e 72a4 1b3e 4ed4 6b3e 2db8 453e
00000060: 14a5 123c 55ab 373a ca9c e93d 35fb 5b3e
00000070: 0ee0 d23d 58c0 243e 0ff2 4c3d ddcc 913d
00000080: 6d5d 873a 8c77 733e 1cde 083e 9901 4b3e
00000090: 0982 373e 5d2a 303e bb07 0f3e a19c 933e
000000a0: 0e0d 3f3e 176c 2a3e 57ef d0bc 4a1d 203e
000000b0: 58d0 bcbc bff6 2b3e 6ade 813d 6f20 463e
000000c0: 3ef1 823e 684f ea3d a7da 6c3e 1715 403e
000000d0: 1d50 76b9 b26f 103c a47d 303c 9c97 373e
000000e0: d020 08bd e9e9 f73c cfe8 e13d 0e5a 87bc
000000f0: accb da3b cc38 8b3e 01d1 153b 6277 6dbd
00000100: 1310 40bd 0b46 013e de71 463e bd8c 853e
00000110: c594 263e 8eed 5b3d 5750 54b9 3cc6 a03c
00000120: ddcf 223e 9a29 f83d fcc1 5f3d 9c20 163c
00000130: 54e3 7c3e 93f4 31bd 6ecc 1c3c 2d79 c5b9
00000140: 9602 d43d 0574 afbc 0d21 243e 528c cab9
00000150: a356 283e 33be 373e 1f88 0f3e 79ef c53d
00000160: a37c 163e 7212 003e 28a7 093e c346 d73a
00000170: 610f 993e ddc8 5e3e 1577 b43b a56b 173e
00000180: ab08 393e 6930 213e be4b 753b

mlp_mini.motion_mlp.mlps.2.norm0.beta f4 [1, 99, 1]
-0.0070687034 0.0086567355 0.025160644 -0.012079537 -0.09673589 0.020510003 0.003929896 -0.00016149123
0.0043321797 -0.0058177863 0.0041498924 0.019311089 -0.050636053 -0.0029174627 0.0039342823 0.07845299
0.03390186 -0.0029027108 0.0021097802 -0.021837559 0.013394035 -0.024234753 0.013223582 0.025758952
0.0051444597 0.0040309527 0.0119720185 -0.026636686 0.016864192 0.029839579 0.032457653 -0.03077773
0.004456668 0.033544235 0.0021449781 -0.0072189346 0.02481497 -0.014486412 0.0008425157 -0.113187574
-0.0018623172 -0.011242086 0.014105158 0.018547742 -0.0032504688 0.02217596 0.0031114335 0.0418115
-0.028290946 0.002018498 0.01948298 -0.028448569 0.003576383 -0.005761758 -0.006374856 -0.0685297
-0.006931702 0.025938958 0.011694126 0.0031126565 -0.0059829643 -0.01581325 -0.0013876702 0.006779728
0.0057820734 0.009796628 -0.011247016 -0.0046194247 0.05037921 0.0011555774 0.0035256215 0.01364038
-0.033312336 -0.0019434824 -0.008762946 0.00449659 0.03104013 0.0032329587 0.008916716 0.0041291746
-0.015587818 -0.019195287 -0.021998145 0.0038206722 0.012448947 -0.030634662 -0.009188834 0.010008263
0.005045057 -0.037274044 0.016828524 0.0039505586 -0.040679075 0.03194085 0.0038595395 0.009874257
0.014690648 0.026963154 0.0037060587
00000000: 95a0 e7bb fbd4 0d3c b21d ce3c 40e9 45bc
00000010: 771d c6bd 9804 a83c 5bc6 803b f955 29b9
00000020: f5f4 8d3b 21a3 bebb d2fb 873b 4a32 9e3c
00000030: c067 4fbd e732 3fbb 27eb 803b f6ab a03d
00000040: addc 0a3d 683b 3ebb 3d44 0a3b aee4 b2bc
00000050: a872 5b3c f687 c6bc b9a7 583c 7004 d33c
00000060: db92 a83b 1516 843b 4926 443c 2e35 dabc
00000070: c626 8a3c 2272 f43c 51f2 043d 9421 fcbc
00000080: 3e09 923b ae65 093d c392 0c3b d08c ecbb
00000090: c448 cb3c 6a58 6dbc 46dc 5c3a e3ce e7bd
000000a0: ff18 f4ba ba30 38bc 5219 673c 6ff1 973c
000000b0: d105 55bb 5caa b53c 31e9 4b3b 8942 2b3d
000000c0: 6ac2 e7bc c748 043b c59a 9f3c f90c e9bc
000000d0: c061 6a3b 21cd bcbb 2be4 d0bb 4d59 8cbd
000000e0: 5523 e3bb f07d d43c b898 3f3c b6fd 4b3b
000000f0: be0c c4bb ca8a 81bc 7ce2 b5ba 7b28 de3b
00000100: 8c77 bd3b 0982 203c 6745 38bc 8b5e 97bb
00000110: 6e5a 4e3d be76 973a 1d0e 673b e77b 5f3c
00000120: 8472 08bd 73bc feba 7692 0fbc 2158 933b
00000130: df47 fe3c 0ce0 533b 6b17 123c 074e 873b
00000140: 0c64 7fbc 6f3f 9dbc 7435 b4bc 3e64 7a3b
00000150: abf6 4b3c 8bf5 fabc c38c 16bc b3f9 233c
00000160: 0151 a53b abac 18bd f9db 893c b073 813b
00000170: 1a9f 26bd 69d4 023d 54f0 7c3b a3c7 213c
00000180: 0bb1 703c d5e1 dc3c 59e1 723b

mlp_mini.motion_mlp.mlps.3.fc0.fc.weight f4 [12, 12]
-0.03339475 0.02143499 -0.04188098 -0.022899188 -0.05061501 -0.05319112 -0.05277909 0.008347541
-0.008195606 -0.010443279 -0.053037472 -0.009278153 0.013015457 -0.0283937 0.038965918 0.070249625
0.0032159532 -0.026673974 0.025651364 0.0007613443 8.3389976e-05 -0.081133366 0.005735311 -0.014850607
-0.02855081 -0.010774812 0.025460392 0.02306861 -0.00088557554 0.006264504 -0.010468974 -0.058423307
0.039722536 -0.003173803 -0.040308468 0.004896844 -0.009555605 0.07932715 0.03094703 0.019861221
0.02559619 -0.035122853 -0.07525853 0.013032907 -0.003356083 -0.031811707 -0.038371008 0.0162902
-0.014536733 -0.04245815 -0.021713536 -0.028275693 0.025945708 -0.040249053 0.008371338 0.008768262
0.0023308657 0.040149406 -0.07979537 0.0020371615 0.0008415466 0.027027514 -0.033287082 0.026226535
-0.030656882 -0.018976038 0.0048557045 0.0016741669 -0.024957344 0.025145799 -0.11221817 -0.019449374
0.023565058 0.040034816 0.042248957 0.053550307 -0.005231342 -0.020537877 0.03746543 -0.016671794
0.0012586229 -0.037934843 0.0038874268 -0.014438563 -0.013852374 -0.016255626 -0.10251247 -0.008982962
-0.020139728 -0.023265053 -0.035699308 -0.011984493 -0.041414782 0.047115672 -0.033216488 0.005292139
-0.04463642 0.047540568 -0.046780713 -0.009784684 -0.03731613 -0.01672615 0.004284059 0.022727681
-0.0036948603 0.0566335 -0.0027557772 0.00806512 0.051665127 -0.024909576 -0.0065391534 -0.022184575
0.037230764 -0.0035448782 0.0045042965 0.045039248 0.03781689 -0.008991282 0.029401941 0.0052132537
0.0018398993 0.046657898 -0.044505358 0.030454457 -0.011218644 -0.024265 0.050246216 0.0016900131
-0.038397633 0.033734597 0.050867278 -0.035284158 -0.030105475 0.023494223 0.03539881 -0.018009555
0.008508799 -0.003923963 0.02398653 -0.0047216173 -0.05570728 -0.012464891 0.0128145795 -0.09384955
00000000: efc8 08bd 6f98 af3c 648b 2bbd 1497 bbbc
00000010: af51 4fbd efde 59bd e32e 58bd 20c4 083c
00000020: dd46 06bc 491a 2bbc d23d 59bd 6503 18bc
00000030: c93e 553c e899 e8bc ba9a 1f3d 09df 8f3d
00000040: bec2 523b 6183 dabc cf22 d23c f394 473a
00000050: a7e1 ae38 4029 a6bd 47ef bb3b f64f 73bc
00000060: 63e3 e9bc d688 30bc 5092 d03c 62fa bc3c
00000070: f825 68ba 7846 cd3b 0f86 2bbc 474d 6fbd
00000080: 19b4 223d 94ff 4fbb 7e1a 25bd b475 a03b
00000090: 1d8f 1cbc 4676 a23d a084 fd3c 00b4 a23c
000000a0: 1aaf d13c fbdc 0fbd 2521 9abd f987 553c
000000b0: bbf1 5bbb fe4c 02bd eb2a 1dbd 0773 853c
000000c0: 7a2b 6ebc 99e8 2dbd 96e0 b1bc 6da2 e7bc
000000d0: 188c d43c 31dc 24bd f027 093c c2a8 0f3c
000000e0: 70c1 183b b473 243d c16b a3bd e681 053b
000000f0: 3d9b 5c3a ce68 dd3c 0958 08bd 08d9 d63c
00000100: 2424 fbbc a373 9bbc 9a1c 9f3b b86f db3a
00000110: 5873 ccbc 90fe cd3c a4d2 e5bd 4b54 9fbc
00000120: 820b c13c 8cfb 233d 3e0d 2d3d 9157 5b3d
00000130: ad6b abbb 0d3f a8bc 5a75 193d 4993 88bc
00000140: 60f8 a43a 9161 1bbd 33c4 7e3b b98f 6cbc
00000150: 11f5 62bc 852a 85bc 0ff2 d1bd 462d 13bc
00000160: 12fc a4bc 5a96 bebc 7039 12bd 9b5a 44bc
00000170: 8ca2 29bd 5dfc 403d 030e 08bd ae69 ad3b
00000180: aed4 36bd e6b9 423d 229d 3fbd f04f 20bc
00000190: ccd8 18bd 4705 89bc 4b61 8c3b 672f ba3c
000001a0: 7825 72bb 87f8 673d 459a 34bb 9123 043c
000001b0: d09e 533d 2b0f ccbc 6546 d6bb 6dbc b5bc
000001c0: 497f 183d 3051 68bb c798 933b 137b 383d
000001d0: e2e5 1a3d 2c50 13bc 57dc f03c f1d3 aa3b
000001e0: c728 f13a 5a1c 3f3d 404b 36bd a07b f93c
000001f0: 67ce 37bc 65c7 c6bc face 4d3d 6e83 dd3a
00000200: d646 1dbd 4a2d 0a3d 355a 503d 1f86 10bd
00000210: c29f f6bc f576 c03c 58fe 103d c688 93bc
00000220: 7d68 0b3c 9694 80bb 667f c43c ccb7 9abb
00000230: 512d 64bd 8b39 4cbc 3ef4 513c 3134 c0bd

mlp_mini.motion_mlp.mlps.3.fc0.fc.bias f4 [12]
3.0695705e-07 -4.6515224e-06 -5.471913e-07 2.509066e-06 -1.8554026e-06 -3.5611968e-06 -9.4249415e-08 -9.3147673e-07
-9.2176657e-07 6.674404e-07 -8.3408264e-07 -1.3343453e-06
00000000: dbcb a434 4614 9cb6 b3e2 12b5 6d61 2836
00000010: 2607 f9b5 e5fc 6eb6 2a66 cab3 980a 7ab5
00000020: 516f 77b5 282a 3335 b9e5 5fb5 c117 b3b5

mlp_mini.motion_mlp.mlps.3.norm0.alpha f4 [1, 99, 1]
0.0521508 0.11989917 0.040515304 0.14581212 0.22177666 0.119242914 -0.013700193 0.12878917
-0.00037644524 0.19492266 -0.0012527818 0.11856575 0.28731188 0.07444833 0.0005207245 0.28515562
0.13187645 0.048970792 -0.0050890977 0.17884345 0.52199996 0.14958175 0.125608 0.13040636
-0.005054797 -0.0001250361 0.055177797 0.26394787 0.1093769 0.13937895 0.042355336 0.07791572
0.0006037273 0.1469878 0.09588895 0.12880065 0.20014536 0.23119658 0.12166831 0.26125643
0.12474026 0.11766248 0.048028573 0.1301247 0.040991783 0.17049582 0.031327456 0.15140814
0.32991993 0.11812591 0.12087574 0.10855455 0.0012086243 0.016441181 0.013890074 0.1604929
0.013139453 0.1656079 0.13197039 -0.0010326505 0.07686179 0.11721101 0.09235803 -0.008376514
0.0039985254 0.21089518 0.11797577 0.11781339 0.093907654 0.012174632 0.0021062219 0.058924448
0.058970638 0.15024224 0.008268132 0.048339617 0.1275742 0.04246874 -0.02272581 -0.005244493
0.11990705 0.0687176 0.1108618 0.0014414997 0.20036058 0.10551754 0.10856446 0.05239948
0.12129653 0.18411556 0.10238435 1.9156343e-05 0.32572353 0.107212745 -0.00075199734 -0.04981734
0.06630927 0.095513016 0.055792794
00000000: 149c 553d b28d f53d 60f3 253d c64f 153e
00000010: 6c19 633e a135 f43d c676 60bc 4fe1 033e
00000020: a05d c5b9 ce99 473e 6234 a4ba 9ad2 f23d
00000030: 8b1a 933e 5e78 983d 3b81 083a ebff 913e
00000040: 9f0a 073e 9995 483d 72c2 a6bb bd22 373e
00000050: caa1 053f f52b 193e 629f 003e 3f89 053e
00000060: b6a2 a5bb 1f1c 03b9 1d02 623d 2d24 873e
00000070: ff00 e03d 5bb9 0e3e ca7c 2d3d 4792 9f3d
00000080: 7443 1e3a f883 163e 6d61 c43d 51e4 033e
00000090: e8f2 4c3e ccbe 6c3e 3c2d f93d 67c3 853e
000000a0: d277 ff3d 07f9 f03d 9cb9 443d 693f 053e
000000b0: 00e7 273d 7596 2e3e 3851 003d bc0a 1b3e
000000c0: 44eb a83e ffeb f13d b38d f73d d951 de3d
000000d0: b46a 9e3a a8af 863c 3193 633c 4058 243e
000000e0: dc46 573c 1e95 293e 3f23 073e 005a 87ba
000000f0: b769 9d3d 530c f03d 3526 bd3d a53d 09bc
00000100: 1006 833b e8f4 573e 489d f13d 2648 f13d
00000110: a852 c03d 1c78 473c 8a08 0a3b c35a 713d
00000120: 328b 713d 1ad9 193e 0f77 073c c3ff 453d
00000130: d0a2 023e b4f3 2d3d 7a2b babc ffd9 abbb
00000140: d491 f53d d0bb 8c3d 830b e33d b4f0 bc3a
00000150: 532b 4d3e 9419 d83d 0b57 de3d d6a0 563d
00000160: 516a f83d ca88 3c3e e3ae d13d efb1 a037
00000170: 3cc5 a63e 5b92 db3d b021 45ba 440d 4cbd
00000180: 28cd 873d 549c c33d fc86 643d

mlp_mini.motion_mlp.mlps.3.norm0.beta f4 [1, 99, 1]
-0.0011244537 -0.009458335 0.016076228 0.0045169815 -0.0006868807 0.04133378 -0.0070408224 -0.018361498
0.00018458354 0.044463065 -0.0007812792 -0.0033243562 0.033928763 0.004404631 -0.00061822624 0.0018639537
0.005655883 0.024444465 -0.0029910798 -0.0035809774 0.0040113456 0.0016245712 0.0444788 -0.03871727
0.008478362 -8.329718e-05 -0.0013383806 0.016847419 -0.013779346 -0.027492655 0.020999094 -0.005121427
-0.00029391752 -0.05632433 0.0044206656 0.043693095 -0.026861155 -0.060530413 0.025877409 -0.007547685
-0.0012019415 0.008351284 -0.0087720975 0.010762982 -0.014277718 -0.019539088 0.008383219 0.021236906
-0.0009503177 0.030570151 0.026539404 -0.032007832 -0.00091344654 0.0083859265 -0.023185253 0.052363172
-0.009403627 -0.014056156 0.0066936216 -0.0032961257 -0.0075820456 -0.004544863 -0.0029985416 0.011897662
-0.006712067 -0.027402766 -0.016035885 -0.008248065 -0.044214427 -0.0008423105 -0.00041683455 -0.011436193
-0.015545344 -0.009803872 -0.00072051055 -0.012039673 0.012126284 -0.009167492 -0.008870771 -0.0009524112
0.033534538 0.0026304282 -0.016348202 -0.00091100886 -0.016512979 -0.006476404 0.024405612 0.02106829
-0.010120364 0.015042506 -0.008800199 -0.00046370298 0.016613234 0.004256957 -0.0018966768 0.0124463
-0.015781928 0.018228978 -0.01033786
00000000: 6862 93ba 22f7 1abc 4bb2 833c 3003 943b
00000010: c90f 34ba 9c4d 293d b3b6 e6bb da6a 96bc
00000020: c48c 4139 e71e 363d c2ce 4cba 71dd 59bb
00000030: e3f8 0a3d b954 903b 7610 22ba e84f f43a
00000040: fc54 b93b c23f c83c fe05 44bb d5ae 6abb
00000050: 9b71 833b 90ef d43a 672f 363d 0096 1ebd
00000060: d4e8 0a3c d5af aeb8 9a6c afba 9903 8a3c
00000070: c4c2 61bc 4738 e1bc 4b06 ac3c a5d1 a7bb
00000080: f118 9ab9 57b4 66bd 3bdb 903b 88f7 323d
00000090: ed0b dcbc bdee 77bd dcfc d33c 9252 f7bb
000000a0: 778a 9dba d3d3 083c d8b8 0fbc 3857 303c
000000b0: 17ed 69bc 7010 a0bc c559 093c 05f9 ad3c
000000c0: be1e 79ba 416e fa3c 2a69 d93c a51a 03bd
000000d0: 5c74 6fba 2065 093c 00ef bdbc c47a 563d
000000e0: ac11 1abc cb4b 66bc 2b56 db3b d003 58bb
000000f0: cf72 f8bb 13ed 94bb 2e83 44bb 69ee 423c
00000100: e6f0 dbbb c47b e0bc b05d 83bc e422 07bc
00000110: 301a 35bd 80ce 5cba 968a dab9 df5e 3bbc
00000120: e6b1 7ebc 6ba0 20bc a5e0 3cba 0c42 45bc
00000130: 52ad 463c 4033 16bc b656 11bc 3cab 79ba
00000140: 835b 093d 4363 2c3b aaec 85bc c5d0 6eba
00000150: 3a46 87bc 0438 d4bb 47ee c73c 6897 ac3c
00000160: e2cf 25bc d874 763c b62e 10bc 291d f3b9
00000170: 7a18 883c f27d 8b3b ea99 f8ba 91eb 4b3c
00000180: 1a49 81bc f054 953c 2160 29bc

mlp_mini.motion_mlp.mlps.4.fc0.fc.weight f4 [12, 12]
-0.07777937 -0.004347142 0.0069365664 -0.015092644 0.024704034 0.00881244 -0.0459584 0.018674906
0.012516153 -0.010085152 0.009637042 -0.061492898 -0.018572526 -0.004125924 0.056274615 0.0022870617
0.037714176 0.018927464 0.011853667 0.055965256 0.013292782 -0.06752836 -0.037980452 -0.049913056
0.0064609363 -0.0334702 -0.052392278 -0.048345078 -0.04236755 0.0001882886 -0.02176564 -0.03139362
0.04905369 -0.01710136 -0.020964792 0.03367709 -0.0126815075 0.003297259 0.041978847 -0.028921174
0.031211117 0.02371728 -0.010163415 -0.029589193 -0.020136766 -0.0033667085 -0.047203995 -0.06025714
-0.028594686 -0.0277458 0.0009581239 -0.054976683 -0.030236173 -0.0072389627 0.00459563 -0.032600526
-0.0057543432 -0.011518466 -0.048070654 0.0034566026 -0.048977926 -0.04826949 0.02044285 -0.040693
0.0090384185 -0.029529471 -0.022164483 -0.011446172 -0.0044093537 0.013366203 0.0014156516 0.046839863
-0.06172458 0.015046848 0.042665288 0.006991108 0.041911617 0.0693166 -0.006436134 -0.0038019803
-0.01189651 0.0303645 -0.0098364465 -0.022630045 -0.036295146 -0.028230999 0.019214485 -0.011479274
-0.008783132 -0.039545428 0.0047198273 0.03230671 -0.0010259043 -0.031588938 -0.08354659 -0.025488269
-0.013668287 0.014055731 0.04388367 0.0035179602 0.03480624 -0.0109333955 -0.0067991884 -0.030610068
-0.0477348 0.0050656837 -0.08987107 0.0009153408 -0.018524608 0.008410873 0.05265854 -0.0072396435
0.026294323 0.050732248 -0.0023935873 -0.02270947 -0.037504613 -0.00095615676 -0.0009431884 0.014990645
-0.023842273 -0.03318864 0.019129004 0.02514963 0.012264578 -0.01901383 0.0037201813 -0.02343193
-0.05057322 -0.013687962 -0.06758765 -0.06800097 -0.020695144 -0.014325876 -0.06844159 -0.019796986
-0.03126867 -0.0174019 -0.032961257 0.059789065 0.0043054763 0.032770388 0.003838894 -0.024588814
00000000: ca4a 9fbd 7872 8ebb 234c e33b 2347 77bc
00000010: 1d60 ca3c 0d62 103c e03e 3cbd 1efc 983c
00000020: 8d10 4d3c 323c 25bc afe4 1d3c fadf 7bbd
00000030: 6925 98bc c232 87bb 3680 663d 87e2 153b
00000040: 2e7a 1a3d c50d 9b3c e235 423c d33b 653d
00000050: f8c9 593c 4f4c 8abd 6491 1bbd a271 4cbd
00000060: 43b6 d33b 0c18 09bd 4999 56bd 7d05 46bd
00000070: 9989 2dbd 566f 4539 db4d b2bc 9996 00bd
00000080: 86ec 483d 2718 8cbc 5bbe abbc fdf0 093d
00000090: 19c6 4fbc d416 583b 03f2 2b3d 19ec ecbc
000000a0: 75ae ff3c be4a c23c 7484 26bc 0965 f2bc
000000b0: dcf5 a4bc ffa3 5cbb fa58 41bd 31d0 76bd
000000c0: 673f eabc 294b e3bc 9b2a 7b3a 3b2f 61bd
000000d0: dab1 f7bc d234 edbb f096 963b 2188 05bd
000000e0: ee8e bcbb f3b7 3cbc bce5 44bd 2b88 623b
000000f0: 149d 48bd 3bb6 45bd c477 a73c b4ad 26bd
00000100: e015 143c cae7 f1bc 4a92 b5bc ba88 3bbc
00000110: 577c 90bb ebfd 5a3c 638d b93a 28db 3f3d
00000120: ead2 7cbd 0e87 763c ccc1 2e3d aa15 e53b
00000130: 84ab 2b3d ddf5 8d3d 35e6 d2bb a52a 79bb
00000140: 94e9 42bc f9be f83c 0c29 21bc a562 b9bc
00000150: 38aa 14bd b244 e7bc b267 9d3c 9113 3cbc
00000160: 20e7 0fbc 63fa 21bd c8a8 9a3b 0a54 043d
00000170: a377 86ba 6763 01bd 791a abbd c6cc d0bc
00000180: f3f0 5fbc 024a 663c 5dbf 333d 948d 663b
00000190: fd90 0e3d fc21 33bc bacb debb f7c1 fabc
000001a0: 9185 43bd 09fe a53b 530e b8bd 7bf3 6f3a
000001b0: ebc0 97bc c2cd 093c 7bb0 573d 883a edbb
000001c0: 3167 d73c 9ecc 4f3d bbdd 1cbb 3609 babc
000001d0: 709e 19bd 98a6 7aba 4d40 77ba 539b 753c
000001e0: df50 c3bc d0f0 07bd 6eb4 9c3c 9906 ce3c
000001f0: 5ef1 483c e4c2 9bbc 49ce 733b 52f4 bfbc
00000200: dd25 4fbd 7943 60bc 656b 8abd 1844 8bbd
00000210: dd88 a9bc 14b7 6abc 1b2b 8cbd 4a2d a2bc
00000220: 9413 00bd 6e8e 8ebc 6202 07bd 61e5 743d
00000230: f414 8d3b 3e3a 063d f495 7b3b 7b6e c9bc

mlp_mini.motion_mlp.mlps.4.fc0.fc.bias f4 [12]
-1.5008801e-07 -1.6036856e-06 -3.4900203e-09 6.5519615e-08 7.242883e-07 5.223928e-07 1.1094451e-06 -2.216417e-06
2.0208022e-07 7.0494133e-07 1.0647918e-06 -4.456721e-07
00000000: e127 21b4 383e d7b5 16d5 6fb1 cab3 8c33
00000010: b76c 4235 8f3a 0c35 3ee8 9435 c1bd 14b6
00000020: 63fb 5834 333b 3d35 f8e9 8e35 b544 efb4

mlp_mini.motion_mlp.mlps.4.norm0.alpha f4 [1, 99, 1]
0.0040235957 0.06865528 -0.021856725 0.074997135 0.22667271 0.089162625 -0.003065659 0.0503053
0.00080362457 0.10676393 0.00024973738 0.053304277 0.09119708 -0.004371156 -0.0017958827 0.31568918
0.035646956 -0.021417359 -0.008653933 0.060035348 0.24950126 0.07568271 0.09310097 0.12588502
0.02614919 0.0014271316 -0.0011022496 0.2545354 -0.034562625 -0.016768748 -0.049287148 0.05530198
-0.00070476986 0.1454146 0.02807868 0.13183953 0.06399347 0.37928247 0.06595466 0.28440428
0.049457867 0.047167897 0.026035413 0.027881026 0.02148701 0.09836472 0.0002600703 0.07961496
0.3972618 0.03354682 0.12806018 0.014837051 -0.001486835 0.007567212 0.024222175 0.17636964
0.02421528 0.05231022 -0.009462173 0.00947634 0.017966243 0.05310764 -0.043083817 0.05042345
-0.0053334488 0.071208864 0.045464426 0.06700092 0.03795928 -0.022439662 0.00079144107 0.026437895
-0.015439036 0.0046735313 -0.021793429 0.02246837 0.09906674 -0.004883147 0.012418624 -0.006179357
0.03878727 0.03500204 0.017221732 -0.00090897386 0.2492012 0.06170174 0.0013801386 -0.0050374614
0.0017956139 0.11027714 0.027225578 0.00078705983 0.35785714 0.022454932 0.0017452652 -0.048997086
0.009029948 0.031589437 0.02291425
00000000: 5ed8 833b 249b 8c3d e00c b3bc 1998 993d
00000010: e41c 683e e59a b63d 39e9 48bb ee0c 4e3d
00000020: 55aa 523a 0ca7 da3d 2fef 8239 9655 5a3d
00000030: 89c5 ba3d ea3b 8fbb d363 ebba 03a2 a13e
00000040: 8b02 123d 7573 afbc 3ac9 0dbc a0e7 753d
00000050: 427d 7f3e 89ff 9a3d b9ab be3d 01e8 003e
00000060: d336 d63c 970e bb3a 5c79 90ba 7752 823e
00000070: 8a91 0dbd 9d5e 89bc 52e1 49bd 5484 623d
00000080: 4ec0 38ba 91e7 143e 4305 e63c f100 073e
00000090: 020f 833d 5031 c23e 3d13 873d 709d 913e
000000a0: 5594 4a3d 2033 413d 3848 d53c c066 e43c
000000b0: 8705 b03c 7173 c93d 0b5a 8839 2b0d a33d
000000c0: e665 cb3e 6468 093d 3522 033e 1a17 733c
000000d0: e7e1 c2ba 60f6 f73b 956d c63c 3e9a 343e
000000e0: 1f5f c63c 3e43 563d 3b07 1bbc a742 1b3c
000000f0: f12d 933c 6687 593d a878 30bd d288 4e3d
00000100: 36c4 aebb f4d5 913d e838 3a3d c737 893d
00000110: 317b 1b3d 62d3 b7bc b678 4f3a 4994 d83c
00000120: 03f4 7cbc 6c24 993b 2288 b2bc 960f b83c
00000130: 81e3 ca3d ce02 a0bb 7c77 4b3c 347c cabb
00000140: 67df 1e3d 4d5e 0f3d 9714 8d3c 3448 6eba
00000150: 992e 7f3e f7ba 7c3d c4e5 b43a 4a11 a5bb
00000160: ce5a eb3a fbd8 e13d 2d08 df3c b152 4e3a
00000170: 0d39 b73e 68f3 b73c 62c1 e43a 2bb1 48bd
00000180: 59f2 133c ed63 013d aab6 bb3c

mlp_mini.motion_mlp.mlps.4.norm0.beta f4 [1, 99, 1]
-0.012550102 -0.009129869 0.044049855 0.0047534467 0.01934004 0.00819486 -0.014489351 -0.019057166
-0.0023712504 -0.0019119756 -0.0026649798 0.0047073546 0.019495828 0.00051955547 -0.0028112442 0.074904054
-0.025463905 0.013706199 -0.005810581 -0.0011634622 0.00038486454 0.015863314 -0.015076568 -0.002810922
-0.0070855054 -0.0028825798 -0.009531086 -0.009138285 -0.008002227 -0.009075191 -0.019863635 0.010542179
-0.0024272697 0.05353133 0.0045914757 -0.012689485 -0.0014798302 0.017979255 -0.009256746 -0.06818088
-0.012548201 -0.010788828 0.01350925 0.020203734 -0.00072011293 0.0067511885 -0.0030249928 -0.02507059
-0.002765415 0.0052227243 -0.005112373 0.0061703324 -0.0030341677 0.004628715 0.011441033 0.009119402
-0.0019285596 -0.007966208 0.0044392943 0.0035915717 0.003551367 0.017495722 0.017820805 -0.005726373
-0.011606035 -0.031522606 -0.026024828 -0.011721263 -0.03392517 -0.0063784095 -0.0030684134 -0.011939814
-0.013412118 -0.0032665734 -0.0004895957 -0.011515639 -0.030554147 -0.003122994 -0.001465134 -0.002280874
0.009204733 0.0062694033 -0.0057501053 -0.0028910823 0.00822688 0.0020426675 -0.005162309 0.012006064
-0.00441165 -0.00046309436 -0.0043642423 -0.002766747 0.031471837 -0.009827534 -0.0054302895 0.011782524
-0.0011121572 0.015991433 -0.0010469536
00000000: f19e 4dbc 7295 15bc 9f6d 343d cdc2 9b3b
00000010: 016f 9e3c bc43 063c be64 6dbc c61d 9cbc
00000020: fb66 1bbb 419b faba f1a6 2ebb 2740 9a3b
00000030: b7b5 9f3c c732 083a da3c 38bb 4c67 993d
00000040: ae99 d0bc f78f 603c b066 bebb 507f 98ba
00000050: a5c7 c939 c8f3 813c b603 77bc 7237 38bb
00000060: 872d e8bb aae9 3cbb 4628 1cbc bfb8 15bc
00000070: c61b 03bc 1cb0 14bc 10b9 a2bc 1bb9 2c3c
00000080: d412 1fbb ab43 5b3d 1774 963b 8fe7 4fbc
00000090: ddf6 c1ba 3b49 933c 9ba9 17bc 6ba2 8bbd
000000a0: f896 4dbc a0c3 30bc e755 5d3c 4d82 a53c
000000b0: f6c5 3cba 1339 dd3b f53e 46bb d760 cdbc
000000c0: f73b 35bb 6323 ab3b b185 a7bb 8030 ca3b
000000d0: e3d8 46bb 7aac 973b 2c73 3b3c 8b69 153c
000000e0: b9c7 fcba b384 02bc 8077 913b 9360 6b3b
000000f0: 0dbe 683b 3053 8f3c f0fc 913c 4ca4 bbbb
00000100: 3d27 3ebc d91d 01bd 0532 d5bc 8a0a 40bc
00000110: 1ef5 0abd fa01 d1bb 6f17 49bb 369f 43bc
00000120: 80be 5bbc 0214 56bb 3658 00ba 17ac 3cbc
00000130: b14c fabc 25ab 4cbb bd09 c0ba b77a 15bb
00000140: 73cf 163c 916f cd3b 616b bcbb 5078 3dbb
00000150: 09ca 063c 46de 053b 9628 a9bb 15b5 443c
00000160: 9a8f 90bb 79cb f2b9 eb01 8fbb 5052 35bb
00000170: 9de8 003d aa03 21bc 92f0 b1bb 7d0b 413c
00000180: cec5 91ba 7700 833c ef39 89ba

mlp_mini.motion_mlp.mlps.5.fc0.fc.weight f4 [12, 12]
-0.0077796816 -0.04859054 -0.003875989 -0.068137765 -0.013178641 0.00620954 -0.04770947 0.027528219
0.05463014 0.0057861605 -0.0077656326 -0.012731234 0.030656654 -0.072276324 0.004023198 0.0023111422
-0.008627201 0.0056605055 -0.029885735 0.051909942 0.05571913 -0.010961431 0.03348363 0.042719766
-0.038118847 0.004457212 -0.028531417 -0.0527896 -0.031145656 -0.023253443 0.0077208406 -0.02542389
-0.053444844 -0.00454464 -0.0177791 0.039392546 0.06097247 -0.012821599 0.018089194 -0.04253759
-0.029527426 0.017992064 -0.037758097 -0.025329078 0.011583039 0.02360166 0.049769994 -0.015872974
-0.023414506 -0.024280466 -0.0038797436 -0.014692782 -0.025405694 0.003124928 -0.080366306 -0.039819784
0.006973642 -0.026885094 0.06601734 0.0008239736 0.028202709 0.004804224 -0.01725814 -0.016005663
0.0007468317 -0.067781165 -0.0054639014 0.033181664 0.022512333 -0.010048585 0.036712516 -0.04432943
-0.027427562 -0.04722776 0.010197174 -0.015782157 0.065753765 0.014724301 -0.00071360153 0.052900545
0.04444224 -0.020613335 -0.03477353 -0.008524852 -0.032567028 -0.017077014 -0.03975578 0.0062913867
0.010443503 -0.0030580668 -0.020226909 -0.1304384 0.017980242 -0.008744727 -0.016815646 0.00712657
0.023552772 0.0037452832 0.024206448 0.035707433 -0.06333301 -0.003412569 -0.04016967 -0.024793433
0.0052089076 -0.017324304 0.047397792 -0.03192874 0.017097551 -0.028253702 -0.016403535 -0.026806738
0.0027121496 0.027963905 -0.024641376 0.036369078 0.09140125 -0.018524932 0.037518922 -0.0031953857
0.023758823 -0.06750771 -0.0018829871 -0.0064815152 -0.029597774 0.021692717 -0.02485066 0.038709745
0.03773786 -0.023590447 0.028123282 -0.03812676 -0.030255646 -0.003026086 0.04382702 -0.0013206418
0.04440971 0.009038926 0.037404884 0.023833228 -0.0061606625 -0.026520025 0.074510776 0.020945005
00000000: b3ec febb e006 47bd 4e04 7ebb d08b 8bbd
00000010: 3aeb 57bc 6679 cb3b 016b 43bd dc82 e13c
00000020: dbc3 5f3d d599 bd3b d976 febb aa96 50bc
00000030: aa23 fb3c 9c05 94bd 08d5 833b 8876 173b
00000040: 1b59 0dbc c37b b93b eed2 f4bc 859f 543d
00000050: be39 643d 9397 33bc 2126 093d ecfa 2e3d
00000060: 8222 1cbd ce0d 923b b8ba e9bc e839 58bd
00000070: 2d25 ffbc 017e bebc 1bff fc3b c345 d0bc
00000080: fbe8 5abd 34eb 94bb 7aa5 91bc 145a 213d
00000090: 45be 793d af11 52bc ca2f 943c e53b 2ebd
000000a0: 80e3 f1bc 1864 933c 3ca8 1abd ed7e cfbc
000000b0: c9c6 3d3c 4558 c13c 9fdb 4b3d 0a08 82bc
000000c0: c7cf bfbc d4e7 c6bc 4c43 7ebb ffb9 70bc
000000d0: 9a1f d0bc 98cb 4c3b 1797 a4bd 121a 23bd
000000e0: 2683 e43b 213e dcbc 1934 873d efff 573a
000000f0: 5e09 e73c c06c 9d3b f160 8dbc 4f1e 83bc
00000100: 07c7 433a dad0 8abd 870a b3bb 7fe9 073d
00000110: c96b b83c d2a2 24bc dd5f 163d c792 35bd
00000120: c4af e0bc e571 41bd 0c12 273c 9549 81bc
00000130: e9a9 863d 323e 713c fd10 3bba 3eae 583d
00000140: 1109 363d 4cdd a8bc b06e 0ebd d2ab 0bbc
00000150: 0165 05bd 18e5 8bbc f5d6 22bd fa27 ce3b
00000160: 3a1b 2b3c d969 48bb e7b2 a5bc a591 05be
00000170: 4d4b 933c 0b46 0fbc f7c0 89bc 0186 e93b
00000180: bef1 c03c 6d73 753b 9a4c c63c f541 123d
00000190: bdb4 81bd 68a5 5fbb f488 24bd 991b cbbc
000001a0: 7caf aa3b b3eb 8dbc 3024 423d b6c7 02bd
000001b0: 2a10 8c3c 4f74 e7bc b560 86bc ce99 dbbc
000001c0: 52be 313b 8f14 e53c b6dc c9bc bef7 143d
000001d0: 9430 bb3d 99c1 97bc 71ad 193d ad69 51bb
000001e0: dda1 c23c 7b41 8abd 90ce f6ba e462 d4bb
000001f0: 0877 f2bc edb4 b13c 9c93 cbbc 1c8e 1e3d
00000200: 0493 1a3d c140 c1bc cc62 e63c ce2a 1cbd
00000210: b0da f7bc 4c51 46bb f683 333d 6319 adba
00000220: f5e6 353d 0118 143c dd35 193d e73d c33c
00000230: 62df c9bb 8640 d9bc 1b99 983d dc94 ab3c

mlp_mini.motion_mlp.mlps.5.fc0.fc.bias f4 [12]
-6.027946e-07 7.0156045e-07 3.0344455e-07 -1.7292749e-06 1.0723197e-06 2.088781e-07 2.2367195e-07 5.3440283e-07
-1.2878981e-07 -5.9957245e-07 6.330136e-07 -3.3194067e-07
00000000: bbcf 21b5 de52 3c35 1ae9 a234 6f19 e8b5
00000010: a0ec 8f35 fa47 6034 7a2a 7034 e273 0f35
00000020: 7949 0ab4 4ef2 20b5 5dec 2935 9435 b2b4
